ttt/alphazero_final.pt (torch, 248410 bytes, 19 tensors)

stem.0.weight f4 [32, 5, 3, 3]
0	0x3e15a5da	0.14614049
1	0x3e8fef9d	0.28112498
2	0xbebeb6d7	-0.3724887
3	0x3ccb3c12	0.024808917
4	0xbc54d1bd	-0.012989459
5	0x3e6f2ed2	0.23357704
6	0xbd318cd6	-0.043347202
7	0xbdf74551	-0.12073768
8	0x3d775082	0.060379513
9	0x3d08766a	0.033316053
10	0xbd2a6efd	-0.041609753
11	0x3e3650df	0.17804287
12	0xbe8263f3	-0.2546688
13	0x3ed12a8e	0.4085278
14	0x3d983c74	0.074334055
15	0xbdee32fc	-0.11630818
16	0x3e2b1774	0.16708165
17	0xbe79acdb	-0.24382345
18	0x3e7d68a9	0.24746956
19	0xbd81ecd1	-0.06343997
20	0xbdad021d	-0.08447669
21	0x3d3bec51	0.045879666
22	0x3e1f90c8	0.15582573
23	0x3e736721	0.2376981
24	0xbef39bb1	-0.4757972
25	0x3f08126c	0.5315311
26	0xbead8bd4	-0.33895743
27	0xbeba6486	-0.36404818
28	0x3d838783	0.06422331
29	0x3e095bd3	0.13413934
30	0x3e9f881d	0.31158534
31	0xbe78af82	-0.24285701
32	0x3e078134	0.13232881
33	0x3eb9fb5a	0.3632458
34	0x3df232ae	0.11826073
35	0x3dd8c982	0.105853096
36	0xbcbe7804	-0.023250587
37	0xbce64169	-0.028107362
38	0x3cc9afb7	0.02461992
39	0x3ed49055	0.41516367
40	0x3d925c63	0.071465276
41	0x3db7688e	0.08955489
42	0x3d187ae4	0.037226573
43	0xbd9573e7	-0.07297497
44	0x3df9cfb2	0.12197818
45	0x3de1bc4b	0.11022242
46	0xbc26630f	-0.010155453
47	0xbef8dbad	-0.486051
48	0xbca073b6	-0.019586425
49	0x3ca7eacd	0.020497704
50	0x3e7c9979	0.2466792
51	0xbc51b9e4	-0.012800667
52	0x3e9bdacf	0.30440375
53	0xbe1a2556	-0.15053305
54	0xbe08e687	-0.13369189
55	0x3e208d8d	0.15678997
56	0x3d77be5e	0.060484283
57	0x3dc509eb	0.09621032
58	0x3cfda8f6	0.030964356
59	0xbe1b712b	-0.15179889
60	0xbdd496a3	-0.10380294
61	0x3df9655f	0.12177538
62	0x3e6c67bd	0.23086448
63	0xbe2440e8	-0.16040385
64	0x3e53fa6b	0.20700996
65	0xbd8c7327	-0.06857901
66	0xbccc36cc	-0.024928473
67	0x3ebbea0b	0.36701998
68	0x3dc08b2a	0.094015434
69	0xbdc8fa88	-0.0981341
70	0x3f077684	0.52915215
71	0x3eca72a4	0.3954059
72	0x3e5721c7	0.21008979
73	0x3eb31d3b	0.3498324
74	0x3ec7e375	0.39040723
75	0x3f01d31b	0.50712746
76	0x3ed0010d	0.40625802
77	0xbd406873	-0.04697461
78	0x3ec9b42d	0.39395276
79	0xbee418da	-0.4455021
80	0xbed40107	-0.41407034
81	0x3b8268c1	0.003979773
82	0x3d450c13	0.048107218
83	0xbd72918d	-0.05922084
84	0x3e26c93e	0.16287705
85	0x3cefa15c	0.029251747
86	0xbe1cef1e	-0.15325591
87	0xbe8b434b	-0.27199778
88	0x3e631b30	0.2217834
89	0xbd164213	-0.036684107
90	0xbe06bb55	-0.13157399
91	0xbe8e3116	-0.27771825
92	0xbe05aa15	-0.13053162
93	0xbe59e1b7	-0.2127751
94	0xbe1b27d2	-0.15151909
95	0x3ed87612	0.4227758
96	0xbe2b75c9	-0.1674415
97	0x3d9a48b2	0.07533397
98	0xbeaceaf1	-0.33772996
99	0xbe9b7f2a	-0.30370456
100	0xbde6b81b	-0.11265584
101	0x3dc0c310	0.09412205
102	0xbd984739	-0.0743546
103	0xbe61f664	-0.22066647
104	0x3de5f1dd	0.112277724
105	0xbe8a9c6b	-0.27072462
106	0x3ddf25c4	0.10895875
107	0x3d9a3725	0.07530049
108	0x3e2fdee4	0.1717487
109	0xbe3f0e15	-0.18657716
110	0x3ddc5793	0.10758891
111	0x3d22e63d	0.039770354
112	0x3f1dec20	0.61688423
113	0x3de237e0	0.110458136
114	0x3e9e5fe2	0.30932528
115	0x3e54fa1b	0.20798533
116	0xbdabc80e	-0.08387767
117	0xbdef46a7	-0.11683398
118	0x3dcc2e55	0.09969775
119	0x3e9a9926	0.30194968
120	0xbdb91b2f	-0.09038388
121	0x3d27abe7	0.040935423
122	0x3e1d231c	0.15345424
123	0xbe3fa8e1	-0.18716766
124	0xbe24f6ef	-0.16109823
125	0x3deb8415	0.11499802
126	0xbe43d6fd	-0.1912498
127	0xbe9c1e18	-0.3049171
128	0xbdc688df	-0.09694075
129	0x3dc0c20f	0.09412014
130	0xbf059eba	-0.5219532
131	0xbe37e92a	-0.17960039
132	0x3d46e503	0.048558246
133	0x3cb7159b	0.02234917
134	0xbce2c420	-0.02768141
135	0xbeadb0c3	-0.3392392
136	0x3de04cb0	0.10952127
137	0x3caeedad	0.021353567
138	0xbb89c58d	-0.004204458
139	0x3e79ec98	0.2440666
140	0x3db8316d	0.08993802
141	0x3c889eca	0.016677279
142	0xbc8ff145	-0.017571101
143	0x3d0e16e4	0.0346898
144	0x3e45c83e	0.19314668
145	0x3a3b5b70	0.0007147109
146	0xbdb440c7	-0.08801418
147	0x3dd091af	0.10184037
148	0xbd14793d	-0.036248434
149	0x3f0cfd15	0.5507367
150	0xbd9e05d3	-0.07715955
151	0xbe09180d	-0.13388081
152	0xbe573c8b	-0.21019189
153	0x3d3a10ae	0.045426063
154	0x3e897461	0.26846603
155	0xbd970fa6	-0.073760316
156	0x3d779d4a	0.060452737
157	0xbc92f383	-0.017938381
158	0xbe4ef802	-0.20211795
159	0xbdb63247	-0.088963084
160	0x3e31bcea	0.17357221
161	0x3ec81232	0.39076382
162	0xbde9f789	-0.11424167
163	0x3e174eb3	0.14776115
164	0xbeb52500	-0.3537979
165	0x3e8c590b	0.27411684
166	0x3d9e31dc	0.07724354
167	0xbd2b52d2	-0.04182703
168	0x3e04bdcb	0.12963025
169	0x3f2f59f9	0.6849666
170	0xbe357db8	-0.17723739
171	0x3b3cb5fa	0.002879499
172	0x3e0e47ac	0.13894528
173	0x3e75b798	0.23995817
174	0xbe444226	-0.19165859
175	0xbe3e7f75	-0.18603308
176	0xbe72ebd8	-0.2372278
177	0x3d443f2b	0.047911804
178	0x3e16ebd0	0.14738393
179	0x3e45f92d	0.19333334
180	0x3e6af83f	0.22946261
181	0xbde28272	-0.11060037
182	0x3dd7058c	0.10499105
183	0x3e4ddb3d	0.20103164
184	0x3ea4f299	0.32216337
185	0x3df2007e	0.118165
186	0xbce2da83	-0.027692085
187	0xbe906307	-0.28200552
188	0x3de299da	0.11064501
189	0x3da69b4f	0.081350915
190	0x3de08cf1	0.109643824
191	0xbe8903ce	-0.26760715
192	0x3d5a4af9	0.053294156
193	0xbe60d5cc	-0.21956557
194	0x3e15c1ef	0.14624761
195	0xbc81e08d	-0.015854144
196	0x3e6a0a19	0.22855414
197	0xbeeec8d4	-0.46637595
198	0xbe0d1e85	-0.13781174
199	0xbe7ca969	-0.24674
200	0xbdedf1cd	-0.116183855
201	0x3e947451	0.28994992
202	0x3e621db1	0.22081639
203	0x3b15f4c0	0.0022881478
204	0xbe1a673b	-0.15078442
205	0x3e70b758	0.2350744
206	0x3d9913b4	0.07474461
207	0x3d9efd84	0.07763198
208	0x3e2703ab	0.16309993
209	0xbefcd219	-0.49379042
210	0xbe32e95b	-0.1747183
211	0xbe223cb5	-0.1584347
212	0xbe245843	-0.16049294
213	0xbdb81133	-0.089876555
214	0xbd89c76b	-0.06727489
215	0x3db37bf3	0.08763876
216	0xbc4ffd11	-0.012694613
217	0x3d3419db	0.04396997
218	0xbc91cc3c	-0.017797582
219	0x3ed23efe	0.41063684
220	0xbdde2b7c	-0.10848138
221	0xbe4fce77	-0.20293604
222	0xbe5a3611	-0.21309687
223	0x3e94737b	0.28994355
224	0x3db02293	0.086003445
225	0x39d92eb8	0.00041424274
226	0x3e282825	0.16421564
227	0xbe24dfba	-0.1610097
228	0xbeae32d8	-0.34023166
229	0x3d8dfc38	0.069328725
230	0x3c3f3072	0.011669265
231	0x3d47b0ad	0.048752476
232	0x3d2b11bf	0.04176497
233	0xbf258d3f	-0.6466865
234	0x3e12a193	0.14319448
235	0xbdbbece9	-0.091760464
236	0x3e030a0d	0.12796803
237	0x3e5509d8	0.20804536
238	0x3db319d8	0.08745164
239	0xbea15523	-0.31510267
240	0x3e74b6e1	0.23897888
241	0x3dd009a5	0.101580895
242	0xbd99de44	-0.07513097
243	0xbe0ee964	-0.13956219
244	0xbe7f905b	-0.24957411
245	0xbe5eb329	-0.21748032
246	0x3e9f2f86	0.31090945
247	0xbe28e8cd	-0.16495056
248	0x3dbc9fe7	0.092101865
249	0xbcbfd622	-0.023417536
250	0xbd919ae2	-0.0710962
251	0x3db5bf84	0.08874419
252	0xbe39ec29	-0.18156494
253	0xbe98a25f	-0.2981138
254	0x3da5a27f	0.08087634
255	0xbe825df2	-0.254623

stem.0.bias f4 [32]
0	0x3c248e6e	0.0100437235
1	0x3ba274d1	0.0049577733
2	0x3d2557a8	0.0403668
3	0xbb3a3d3a	-0.0028417842
4	0x3c54711a	0.012966419
5	0x3c9b95a0	0.018992245
6	0x3bfbee15	0.0076882937
7	0x3cc0a5eb	0.023516616
8	0xbb9a9851	-0.0047178646
9	0xbc1411d4	-0.009037454
10	0xbc463f12	-0.012099998
11	0x3c226533	0.009911823
12	0x3cc982c3	0.024598485
13	0xbbe81f69	-0.0070838225
14	0x3c5a4da2	0.013324173
15	0x3c5f8532	0.013642596
16	0x3bfeff7b	0.0077819205
17	0xbc465731	-0.012105749
18	0x3d58f7ba	0.052970625
19	0x3cfde879	0.03099464
20	0x3bd3aa68	0.006459523
21	0x3aad76ec	0.0013234294
22	0x3d03d7b3	0.03218813
23	0x3ccf14f9	0.025278555
24	0x3c14346a	0.0090457
25	0x3caff6b1	0.021479936
26	0x3cbab57b	0.022791615
27	0x3c1f9252	0.009739475
28	0x3bb09eba	0.0053900154
29	0x3ace7b61	0.0015753323
30	0x3b641676	0.0034803427
31	0x3cc509b2	0.024052475

tower.0.conv1.weight f4 [32, 32, 3, 3]
0	0xbd894ea9	-0.06704456
1	0xbdd20b8f	-0.10256111
2	0xbd8ab792	-0.067732945
3	0xbdc1e424	-0.094673425
4	0xbda244a7	-0.07923251
5	0xbca176f8	-0.019710049
6	0x3e207c7d	0.15672489
7	0x3dc99407	0.09842687
8	0x3c1cfa2f	0.009581133
9	0xbd05a4ed	-0.03262799
10	0xbc8a51f1	-0.016884776
11	0x3d3f6506	0.046727203
12	0xbd24918f	-0.040177878
13	0x3d4a5cdd	0.049404968
14	0xbc81b359	-0.01583259
15	0x3e62cb7a	0.22147933
16	0x3cbc071a	0.022952605
17	0x3d6ac655	0.05731805
18	0xbcb8602f	-0.022506801
19	0x3dd0e240	0.10199404
20	0xbcffec84	-0.03124071
21	0xbb6cefae	-0.0036153602
22	0x3d9f306d	0.07772908
23	0x3cdec0c1	0.027191522
24	0xbd1cf32a	-0.038317837
25	0xbe1d98aa	-0.15390268
26	0xbd11d49f	-0.035603162
27	0xbde44392	-0.111457005
28	0xbd442f4e	-0.047896676
29	0xbbc29169	-0.0059377444
30	0x3bf037b1	0.0073308577
31	0x3e6d78e6	0.2319065
32	0xbde0aa56	-0.10969989
33	0x3d05d5a1	0.032674436
34	0x3daf6b97	0.08565443
35	0x3e0c4d1b	0.13701288
36	0xbd145ee1	-0.036223296
37	0xbd79b473	-0.060963105
38	0x3bb3da13	0.005488643
39	0xbdf1f697	-0.118146114
40	0x3ddd8948	0.108172
41	0xbd1ce69b	-0.03830586
42	0xbd33934b	-0.04384164
43	0x3be5617d	0.007000147
44	0x3d8b6be0	0.06807685
45	0x3d9326b3	0.07185116
46	0x3d96a20a	0.07355125
47	0xbd357c2c	-0.044307873
48	0xbbb36225	-0.005474346
49	0xbd25d1d3	-0.040483307
50	0x3da85e3c	0.08221099
51	0x3da76bbf	0.08174848
52	0x3dedef8b	0.11617955
53	0xbccaf759	-0.024776148
54	0xbd6e706d	-0.058212686
55	0x3da96b29	0.08272392
56	0xbd139441	-0.036030058
57	0xbe2e970b	-0.17049806
58	0xbc2f21ef	-0.010689243
59	0xbd2b7797	-0.041862097
60	0xbdc14b61	-0.094382055
61	0x3bec8475	0.0072179385
62	0x3d9a5f92	0.0753776
63	0x3dee346b	0.11631092
64	0x3e217c1e	0.15770003
65	0xbd4bb5cc	-0.049733922
66	0xbcf80bab	-0.030279001
67	0xbc86a432	-0.016435716
68	0x3d9d0743	0.07667401
69	0x3c9a2238	0.018815145
70	0x3c0fea72	0.008783923
71	0xbd9e265e	-0.07722162
72	0xbdb29946	-0.08720641
73	0x3c79f286	0.015255576
74	0xbd6146f3	-0.054999303
75	0xbd3d91a8	-0.046281487
76	0xbe1f838f	-0.1557753
77	0x3b4795e5	0.0030454334
78	0xbb9ebc19	-0.0048442003
79	0xbcbc448e	-0.022981908
80	0xbbaa4ba5	-0.005197006
81	0x3e173e58	0.14769876
82	0x3e7ccf38	0.24688423
83	0x3b4f50ff	0.003163397
84	0x3cea8c15	0.02863125
85	0xbd8893b6	-0.066687986
86	0xbc792a8d	-0.015207899
87	0xbcc6835f	-0.024232564
88	0xbd2fba32	-0.04290218
89	0xbd412907	-0.047158267
90	0x3d8b49ac	0.06801161
91	0x3c849f7b	0.016189327
92	0xbd27232c	-0.040805027
93	0xbe245c68	-0.16050875
94	0xbd773375	-0.060351808
95	0xbd5958fa	-0.05306337
96	0x3d3794e8	0.044819742
97	0xbd50c511	-0.050969187
98	0xbe7768a4	-0.24161011
99	0x3da719f6	0.081592485
100	0xbd6c791f	-0.057732698
101	0xbd152fbe	-0.036422484
102	0xbe2011a9	-0.15631737
103	0xbdb49be8	-0.08818799
104	0xbdc083c9	-0.09400136
105	0x3d1c9e3e	0.03823685
106	0xbe1178c8	-0.1420623
107	0x3cc2d358	0.023782417
108	0xbe32cd08	-0.17461026
109	0xbc0906ad	-0.008363408
110	0xbd15e402	-0.0365944
111	0xbb6572a7	-0.0035010965
112	0xbc8348dc	-0.016025953
113	0x3b93d40c	0.004511362
114	0xbd1e6585	-0.038671035
115	0xbdb42add	-0.08797238
116	0x3df6ba83	0.12047293
117	0xbe2ef695	-0.17086251
118	0xbe32db3e	-0.17466447
119	0x3e0bc116	0.13647875
120	0x3d46b881	0.0485158
121	0x3ca95b1f	0.020673333
122	0x3e3cec6e	0.18449566
123	0xbe3c0001	-0.18359376
124	0xbd256dcf	-0.040387925
125	0xbc078455	-0.0082712965
126	0x3be4b3bd	0.0069794343
127	0x3e348470	0.17628646
128	0xbda80489	-0.0820399
129	0xbdc63c28	-0.09679443
130	0x3da6e49d	0.08149073
131	0x3d7757d2	0.060386486
132	0xbcb20081	-0.021728756
133	0x3c27a7d1	0.010232882
134	0x3dc45fd8	0.09588593
135	0xbd06734c	-0.0328248
136	0x3afe6bcc	0.0019410788
137	0x3db8c642	0.0902219
138	0xbe03c34e	-0.12867472
139	0x3e12f91c	0.1435284
140	0xbd35c71d	-0.044379342
141	0xbd593861	-0.053032283
142	0xbc872b44	-0.016500123
143	0x3cb5968b	0.022166511
144	0xbc20da9b	-0.009817745
145	0x3daee381	0.08539487
146	0x3df40686	0.11915307
147	0x3db8d0d8	0.09024209
148	0xbd06e81b	-0.032936197
149	0xbc2d2232	-0.010567235
150	0xbd9d2f8a	-0.07675083
151	0x3da5d602	0.080974594
152	0xbd63d320	-0.055621266
153	0xbca167cb	-0.019702813
154	0xbdbd7890	-0.09251511
155	0xbced87b7	-0.028995378
156	0x3c5c54d4	0.013447959
157	0x3e1db89b	0.15402453
158	0x3d95eedf	0.07320952
159	0xbcfb300f	-0.030662565
160	0x3c9904df	0.01867908
161	0xbdf7add8	-0.12093705
162	0x3ceded1d	0.029043728
163	0x3d9a48f4	0.07533446
164	0xbc22f9b5	-0.00994723
165	0xbd946e48	-0.07247597
166	0xbc4c1401	-0.012455941
167	0xbd7fdce3	-0.062466513
168	0x3dcaeddf	0.099086516
169	0xbdd26e4d	-0.102749445
170	0xbe6cd642	-0.23128608
171	0xbb8e05a4	-0.0043341685
172	0xbe24e1f6	-0.16101822
173	0xbc53f8c1	-0.0129377255
174	0xbdd44e31	-0.10366476
175	0xbe46bfb3	-0.19409065
176	0x3d810f53	0.06301751
177	0x3e04cf9e	0.12969825
178	0xbe191df6	-0.14952835
179	0xbd03c80e	-0.03217321
180	0x3d88c2f3	0.066778086
181	0x3d3026b7	0.04300567
182	0x3d73ca89	0.059519324
183	0xbe1bf5fe	-0.15230557
184	0x3cca2fd7	0.024681015
185	0x3d65beab	0.05609004
186	0xbe1f53a6	-0.15559253
187	0xbd15b1bf	-0.036546465
188	0x3b011892	0.0019698483
189	0xbd007f9d	-0.0313717
190	0x3e0c4bba	0.13700762
191	0xbd55d357	-0.052203503
192	0xbdb49d04	-0.08819011
193	0xbd6a4da4	-0.05720295
194	0x3d63d709	0.055624995
195	0x3dc792b4	0.09744778
196	0xbda075cf	-0.0783497
197	0xbde53452	-0.1119162
198	0xbd0e5ef0	-0.03475851
199	0xbd7c8a3c	-0.061655268
200	0xbdc6f063	-0.09713819
201	0x3e07ff91	0.13281085
202	0xbc93b57a	-0.01803087
203	0xbd17d121	-0.037064675
204	0xbd76fb8c	-0.060298488
205	0xbaff17c8	-0.0019462043
206	0x3daea572	0.0852765
207	0x3df98172	0.12182893
208	0x3b4b8c4a	0.003105896
209	0xbd95248d	-0.07282362
210	0xbd36cc80	-0.04462862
211	0xbd879dbd	-0.06621883
212	0x3d4ffee2	0.050780185
213	0x3d7602a5	0.060061116
214	0xbd142862	-0.036171325
215	0x3d1228fd	0.03568362
216	0x3d995c2f	0.07488286
217	0x3d1571b2	0.03648538
218	0xbe04302a	-0.12908998
219	0xbdddf85d	-0.10838387
220	0x3d56de0f	0.052457865
221	0x3c166713	0.009179848
222	0xbd1a4dbe	-0.037671797
223	0xbc02320d	-0.007946503
224	0xbca2fd4a	-0.019896168
225	0x3e1560a2	0.14587644
226	0xbe387c97	-0.18016277
227	0xbd143777	-0.036185708
228	0x3e058450	0.13038754
229	0xbd8a789f	-0.06761288
230	0x3af7b25b	0.0018897759
231	0xbc9b1776	-0.018932085
232	0xbd2b056c	-0.041753218
233	0x3d8667e4	0.06562784
234	0x3c68b777	0.014203898
235	0x3d05fde9	0.03271285
236	0x3de4dad4	0.11174551
237	0x3b67f039	0.0035390987
238	0x3d016cd5	0.03159793
239	0x3e15ab26	0.14616069
240	0xbd17e54f	-0.03708392
241	0xbdd5ae8b	-0.10433682
242	0xbdc1bde9	-0.094600506
243	0x3d83c183	0.06433394
244	0xbe0c456e	-0.1369836
245	0xbdca1bcd	-0.09868584
246	0xbd116d4e	-0.03550463
247	0x3d86551a	0.065592006
248	0x3dbf6b29	0.09346611
249	0x3e168419	0.14698829
250	0xbcfb662d	-0.03068837
251	0x3dc1c3bc	0.094611615
252	0x3dc68a0c	0.09694299
253	0x3d33da5a	0.04390941
254	0xbde1fc3e	-0.110344395
255	0x3d017ed5	0.031615097

tower.0.conv1.bias f4 [32]
0	0x3c3a0837	0.011354498
1	0x3c919da5	0.017775366
2	0x3cb6cbcc	0.022313975
3	0x3a96ce8b	0.0011505646
4	0x3b1270df	0.0022345108
5	0xbbceba03	-0.0063087954
6	0x3c6df0e5	0.014522766
7	0xbc49a02e	-0.012306256
8	0x3c10f745	0.008848016
9	0x3b1f6526	0.0024321764
10	0xbbfa2240	-0.0076334774
11	0x3b8ffb4d	0.004393971
12	0x3c1b286f	0.009470089
13	0x3b3a5183	0.0028429932
14	0xb962e1d9	-0.00021637174
15	0xbb1f865e	-0.0024341564
16	0xbc17486c	-0.009233575
17	0x3b683921	0.0035434442
18	0x3c689858	0.014196478
19	0x3bfe4b11	0.0077604135
20	0xbbd3f1ce	-0.0064680343
21	0x3cdf516f	0.02726051
22	0xbb4b6c58	-0.003103992
23	0x3aac0523	0.001312409
24	0x3b191285	0.0023356986
25	0x3c61e62f	0.01378779
26	0xbc5a9c7b	-0.013342972
27	0x3be4c7fc	0.006981848
28	0xba8023b3	-0.0009776264
29	0x3af56abe	0.0018723828
30	0x3b85cf01	0.0040835147
31	0x3a8e06d7	0.0010835779

tower.0.conv2.weight f4 [32, 32, 3, 3]
0	0xbe101077	-0.14068781
1	0x3d8b17c3	0.067916416
2	0x3d991ade	0.07475828
3	0x3c154d23	0.009112629
4	0xbcb28805	-0.021793375
5	0x3be6eebb	0.007047502
6	0x3db900ec	0.09033379
7	0xbd56fe82	-0.05248881
8	0xbd55c2b3	-0.052187633
9	0x3c239ab6	0.009985616
10	0xbdb96a0c	-0.0905343
11	0xbda3be2f	-0.07995259
12	0xbd97ad16	-0.074060604
13	0x3d5408e3	0.051766288
14	0xbdf4dece	-0.11956559
15	0xbe37b76c	-0.17941064
16	0xbda14309	-0.07874114
17	0x3d3728ba	0.044716574
18	0x3e16030c	0.146496
19	0x3d5cbea0	0.05389273
20	0xbc325e47	-0.010886735
21	0x3c950c57	0.01819436
22	0x3afeb411	0.0019432326
23	0xbd46a04d	-0.04849272
24	0xbd3f0ebe	-0.04664492
25	0xbc0a1146	-0.00842697
26	0x3caa1304	0.02076102
27	0x3dd784e3	0.10523393
28	0xbd9c7980	-0.07640362
29	0xbd49c138	-0.049256533
30	0xbd095ced	-0.033535887
31	0xbd38e32b	-0.04513852
32	0xbd1da367	-0.03848591
33	0x3e1a9aee	0.15098163
34	0x3cd9e138	0.02659665
35	0x3dab4029	0.08361847
36	0xbdf4002f	-0.119140975
37	0xbce16855	-0.02751557
38	0x3e084293	0.13306646
39	0x3d919ee9	0.07110388
40	0xbd2ca98f	-0.04215389
41	0xbd5cf613	-0.053945612
42	0x3ddfd51a	0.10929318
43	0xbdd5d581	-0.10441113
44	0x3cc2a213	0.023758924
45	0xbdbf2091	-0.093323834
46	0xbca21a06	-0.0197878
47	0xbd95884e	-0.07301389
48	0x3dd031f9	0.101657815
49	0x3bc243cd	0.0059284926
50	0xbd31081a	-0.043220617
51	0xbe02ea90	-0.12784791
52	0x3db04a01	0.08607865
53	0xbd749446	-0.059711717
54	0x3d8e6dea	0.06954558
55	0x3cfb9e59	0.030715154
56	0xbc91a3d8	-0.017778322
57	0xbe228067	-0.15869294
58	0xbc194b1d	-0.009356287
59	0xbdd1446b	-0.10218128
60	0xbd890212	-0.06689848
61	0x3d09f545	0.033681173
62	0xbd9ebe0f	-0.077510945
63	0xbdcac7f3	-0.099014185
64	0xbd9f582c	-0.07780489
65	0x3cf7e86e	0.030262198
66	0x3d0b9768	0.03407994
67	0xbce59ea2	-0.028029744
68	0x3bd7cd84	0.0065857787
69	0xbe2496ab	-0.160731
70	0xbbfb88a3	-0.0076762005
71	0x3e5646bf	0.20925425
72	0xbd149aa2	-0.03628028
73	0x3b485782	0.0030569737
74	0xba8a7d7b	-0.001056596
75	0xbb7ee81e	-0.0038895677
76	0xbc9b9203	-0.018990522
77	0xbe229156	-0.15875754
78	0x3cbc5e0c	0.022994064
79	0xbe53b475	-0.20674308
80	0x3c2d9679	0.0105949575
81	0x3c23ce0f	0.009997859
82	0x3e2abc62	0.16673425
83	0xbe134002	-0.14379886
84	0x3dacd510	0.08439076
85	0xbd451e3f	-0.048124548
86	0xbdab08ad	-0.08351264
87	0xbb9f969e	-0.00487025
88	0xbe3780ee	-0.17920277
89	0xbde346ac	-0.11097464
90	0xbd5fca88	-0.05463651
91	0xbd9af26e	-0.07565771
92	0xbd2ee212	-0.042696066
93	0x3df764a3	0.12079742
94	0x3c182a50	0.009287432
95	0xbcc2b387	-0.023767246
96	0x3a916a24	0.0011094254
97	0x3e400497	0.18751751
98	0xbbaa6073	-0.005199486
99	0x3e411ed2	0.18859413
100	0xbcae83a6	-0.02130301
101	0x3d33f9c6	0.043939374
102	0xbbab93ec	-0.0052361395
103	0xbe35fcd9	-0.17772235
104	0x3d83bbff	0.06432342
105	0xbc8f6abb	-0.017506948
106	0x3cba3ce7	0.022734119
107	0x3ddfc56c	0.10926327
108	0xbe1a4aa4	-0.15067536
109	0xbd9946a3	-0.07484176
110	0xbd27f72d	-0.04100721
111	0x3d81f93e	0.06346367
112	0x3d9c075a	0.0761859
113	0xbce2661c	-0.02763658
114	0xbd9bb147	-0.07602172
115	0x3d01e3ef	0.031711515
116	0x3dd8589f	0.10563778
117	0x3e08feec	0.13378495
118	0x3d83160e	0.06400691
119	0x3d87544d	0.06607876
120	0xbd38bd76	-0.04510256
121	0xbd191d1c	-0.037381276
122	0x3c938f40	0.018012643
123	0x3ccd1a1d	0.025036866
124	0x3cf677c2	0.030086402
125	0x3c972f66	0.018455219
126	0x3ccc5a4a	0.024945397
127	0x3dacc1a9	0.08435375
128	0xbdcdc945	-0.10048155
129	0x3e00fed0	0.12597203
130	0x3c7c3ca9	0.015395322
131	0xbdffb45d	-0.124855734
132	0x3daa9e96	0.08331029
133	0xbe04e707	-0.12978755
134	0x3cb98d1a	0.02265029
135	0xbd38943e	-0.04506325
136	0x3db7c7f0	0.08973682
137	0x3da4a062	0.08038403
138	0x3d8d6d4c	0.06905612
139	0x3d67da66	0.056604765
140	0xbc76fb2a	-0.015074531
141	0xbd5eef52	-0.054427452
142	0xbdcdbf14	-0.10046211
143	0x3dabb50f	0.083841436
144	0xbddf963c	-0.10917327
145	0x3dd55269	0.10416109
146	0xbc7154e7	-0.014729715
147	0xbd37f8bb	-0.044914942
148	0xbbc13e29	-0.0058973026
149	0xbc0ea487	-0.008706219
150	0x3c8c1166	0.01709814
151	0x3dbe7443	0.09299519
152	0xbd64480a	-0.055732764
153	0x3e485485	0.19563492
154	0xbdcf9cdb	-0.1013734
155	0xbdaadba9	-0.08342678
156	0x3ce03a66	0.027371597
157	0x3c8eb8c6	0.017422091
158	0x3d442550	0.047887146
159	0xbe779262	-0.24176934
160	0xbc2a1404	-0.010380749
161	0xbdceb5af	-0.10093247
162	0x3c35d20a	0.0110974405
163	0xbe024d32	-0.1272476
164	0x3d605d56	0.054776512
165	0x3d789ed6	0.060698353
166	0x3c8f0eff	0.017463205
167	0xbc3b4d44	-0.011431996
168	0xbd735c1c	-0.059414014
169	0x3e1da8a2	0.1539636
170	0xbc50a738	-0.012735181
171	0xbdbbfb7e	-0.09178828
172	0xbda4ad49	-0.08040864
173	0x3d218e1d	0.03944217
174	0x39898fb7	0.00026237752
175	0xbe1bdf94	-0.15222007
176	0x3d09923d	0.03358673
177	0xbd75cc88	-0.06000951
178	0x3daf1205	0.08548359
179	0x3d299a7e	0.0414071
180	0xbc6a3f6c	-0.0142973475
181	0xbbabc6d9	-0.0052422103
182	0x392a3bc7	0.00016234732
183	0xbcf55d6e	-0.029951777
184	0xbdd73a50	-0.10509169
185	0x3d2c332c	0.04204099
186	0x3da4df12	0.0805036
187	0xbdb64344	-0.08899549
188	0x3e1271f0	0.14301276
189	0x3cacfd77	0.021116955
190	0x3c82e812	0.0159798
191	0x3d8c3518	0.06846064
192	0xbd833c48	-0.06407982
193	0xbdb32cdf	-0.08748793
194	0xbe20672c	-0.15664357
195	0xbdcc3abd	-0.09972141
196	0xbe0e72d2	-0.13910988
197	0xbe7ce2aa	-0.2469584
198	0xbe259880	-0.16171455
199	0x3d2c8d37	0.04212686
200	0x3c7614f9	0.015019649
201	0x3d26a7c9	0.040687356
202	0xbe5a764e	-0.21334192
203	0xbd8f0e4e	-0.0698515
204	0xbcdf5adb	-0.027265003
205	0x3d67362b	0.056448143
206	0x3dadc946	0.084856555
207	0xbe024a09	-0.12723555
208	0x3d8570c1	0.06515647
209	0x3c074d3e	0.008258162
210	0x3e2e2b17	0.17008625
211	0x3d81a34f	0.06329977
212	0xbc90de7f	-0.01768422
213	0x3d9c5861	0.076340444
214	0xbd79372a	-0.060843624
215	0xbe202a4d	-0.15641136
216	0x3d48be0c	0.049009368
217	0x3dd26c5e	0.10274576
218	0xbe23b42a	-0.15986696
219	0xbddfef6c	-0.10934338
220	0xbe4039e4	-0.18772084
221	0x3d491a93	0.04909761
222	0xbe01395b	-0.12619536
223	0x3e4fce04	0.20293432
224	0xbe1ed5b7	-0.15511213
225	0x3cd9c8ef	0.02658507
226	0x3d816d19	0.06319637
227	0x3e0b2f89	0.13592352
228	0xbe914f2a	-0.2838071
229	0x3d25b1d7	0.040452804
230	0x3d0f39d0	0.034967244
231	0xbd615258	-0.05501017
232	0x3d9a86ce	0.07545243
233	0xbd99f091	-0.075165875
234	0x3dc2ca6b	0.095112644
235	0xbc918870	-0.017765254
236	0xbdcda6bc	-0.10041568
237	0xbbb464aa	-0.005505164
238	0xbc471bf1	-0.012152658
239	0x3c6c5449	0.014424392
240	0xbd85eed0	-0.065396905
241	0xbd22fd28	-0.03979221
242	0x3e23ba68	0.15989077
243	0xbda52991	-0.08064569
244	0xbc27f7b5	-0.010251929
245	0x3ca02b1c	0.019551806
246	0xbde46b11	-0.11153234
247	0x3d541f6a	0.05178777
248	0x3c8652a0	0.01639682
249	0x3d9348c3	0.071916126
250	0x3d8d6c89	0.06905467
251	0x3dd5bd7e	0.104365334
252	0x3d4c1f39	0.049834464
253	0x3d9387f8	0.07203668
254	0x3db9c471	0.09070671
255	0x3dafbe48	0.08581215

tower.0.conv2.bias f4 [32]
0	0x3b8ab601	0.0042331223
1	0xb9850e94	-0.00025378598
2	0x3c2e9676	0.01065599
3	0x3a4427dd	0.0007482747
4	0x3be7637a	0.007061419
5	0x3b893611	0.0041873534
6	0x3af7a0c9	0.0018892522
7	0x3c6ea718	0.014566205
8	0x39c8c715	0.000382953
9	0xbb78541c	-0.003789193
10	0xbb9b4124	-0.00473799
11	0x3b21f5a7	0.002471307
12	0x3a8c201b	0.001069072
13	0xbb81613d	-0.0039483593
14	0x3c0b84a0	0.008515507
15	0xbb21cad4	-0.0024687545
16	0x3b873677	0.0041263658
17	0xbbeb8ffe	-0.007188796
18	0x3ca2490f	0.019810228
19	0x3b85dbc2	0.004085035
20	0x3ac46b2b	0.0014985552
21	0x3b4f8889	0.0031667075
22	0xbb70ed5e	-0.0036762576
23	0xbc36a56b	-0.011147837
24	0x3ba25372	0.004953795
25	0x3a878c71	0.0010341537
26	0xbb777913	-0.0037761375
27	0xbb573f77	-0.0032844224
28	0x3c9d199b	0.019177249
29	0xba1778e0	-0.00057782046
30	0xbb10e542	-0.0022109305
31	0x3ba04a57	0.0048916745

tower.1.conv1.weight f4 [32, 32, 3, 3]
0	0xbbe645fb	-0.0070273853
1	0xbe08b69d	-0.13350911
2	0xbce21174	-0.027596213
3	0xbddada60	-0.10686183
4	0x3b7c82f8	0.0038530212
5	0xbe1bf7b5	-0.15231211
6	0x3c4e2abe	0.012583433
7	0xbcc213b2	-0.023691032
8	0x3b578d8d	0.0032890767
9	0x3cf6442f	0.03006181
10	0x3c1449e6	0.009050822
11	0x3e086594	0.13319999
12	0xbda00f01	-0.07815362
13	0x3bb446d9	0.0055016098
14	0xbcec65d7	-0.028857155
15	0xbceaca38	-0.028660879
16	0x3dd7de07	0.10540395
17	0x3db41f96	0.08795087
18	0xbd5e7996	-0.054315172
19	0x3d815d97	0.06316679
20	0x3e02b880	0.12765694
21	0x3dd82146	0.105532214
22	0xbc57ad09	-0.013163813
23	0x3e199cc4	0.15001208
24	0x3c8f84ab	0.017519316
25	0xbde78903	-0.1130543
26	0x3c0fc0da	0.008774007
27	0x3d88598a	0.06657703
28	0xbda4b52e	-0.0804237
29	0x3d123274	0.035692647
30	0x3da0f769	0.0785969
31	0xbd636109	-0.05551246
32	0x3cc064f9	0.023485648
33	0x3e06ff27	0.1318327
34	0x3dd44f8c	0.10366735
35	0x3e4765a5	0.19472368
36	0xbcc817e7	-0.02442546
37	0x3c450fb3	0.012027669
38	0x3a5ffd9b	0.0008544565
39	0x3e451b16	0.19248614
40	0x3dc367a8	0.09541255
41	0x3d27a1cf	0.040925797
42	0x3b7a702f	0.003821384
43	0x3c0e6981	0.008692146
44	0x3c7043ad	0.014664573
45	0xbe3584b1	-0.17726399
46	0x3cd7333b	0.026269546
47	0x3cb6e5a7	0.022326304
48	0xbd701c74	-0.058620885
49	0xbc993a27	-0.018704487
50	0xbd75aa91	-0.059977118
51	0x3d9f8a28	0.07790023
52	0xbe14899c	-0.14505619
53	0x3d5b7e7b	0.053587418
54	0x3dbf561f	0.09342598
55	0x3c6f1632	0.014592694
56	0x3e4c481c	0.19949383
57	0x3bb5fb1e	0.005553617
58	0xbc73923f	-0.014866411
59	0x3ea46033	0.32104644
60	0xbc5eb5a8	-0.013593115
61	0xbe526c1b	-0.20549051
62	0xbe3ed60d	-0.18636341
63	0x3db7315d	0.08944962
64	0x3d944e67	0.072415166
65	0xbd86d775	-0.06584064
66	0xbc8b15e2	-0.016978208
67	0x3d8210dd	0.06350873
68	0xbd322c00	-0.043498993
69	0x3d23e1dc	0.04001032
70	0x3dd5db17	0.10442179
71	0x3db88fae	0.0901178
72	0x3df06ae5	0.117391385
73	0x3e2bc1c8	0.1677314
74	0xbd2feb0f	-0.04294878
75	0x3b274a05	0.0025526297
76	0xbe1b3bd1	-0.15159537
77	0x3d334f33	0.043776702
78	0xbdb6a80d	-0.08918772
79	0x3e04bea7	0.12963353
80	0xbbf9f50a	-0.007628088
81	0xbe12fca5	-0.14354189
82	0x3d02998e	0.031884722
83	0xbd949b0f	-0.072561376
84	0xbdd040b3	-0.101685904
85	0x3d59a45b	0.053135257
86	0x3c9ba6f5	0.01900051
87	0x3e31b3e0	0.17353773
88	0x3d895026	0.0670474
89	0x3db10fec	0.08645615
90	0xbdb58d65	-0.088648595
91	0xbe409f98	-0.1881088
92	0x3df3b030	0.118988395
93	0x3c1d303b	0.009594019
94	0xbdf7fcc3	-0.12108757
95	0x3d10cfa0	0.035354257
96	0x3e201ca8	0.15635931
97	0x3a6b34b2	0.0008972391
98	0xbd032e94	-0.032026842
99	0xbd2e0cd9	-0.04249272
100	0x3dd43776	0.10362141
101	0xbd526bef	-0.051372465
102	0xbe0f9119	-0.14020194
103	0x3cba2890	0.02272442
104	0x3c7ddb17	0.01549413
105	0xbdd4a205	-0.10382465
106	0xbc0e8f17	-0.008701107
107	0x3e1135de	0.14180705
108	0x3c2fc9fd	0.01072931
109	0xbd3478a7	-0.044060376
110	0x3d0967ce	0.03354626
111	0x3e3687e1	0.17825271
112	0xbd539192	-0.0516525
113	0xbd1f1cec	-0.03884594
114	0xbd94a385	-0.072577514
115	0x3da0cd16	0.07851617
116	0xbdcb9308	-0.09940153
117	0x3c5536e8	0.013013579
118	0x3d43f76f	0.047843393
119	0x3c50d2c4	0.012745563
120	0xbbc03391	-0.005865522
121	0x3d0fb786	0.03508713
122	0x3e087fcc	0.1333
123	0xbd87c63a	-0.066296056
124	0x3d9e9c9b	0.07744714
125	0xbd9c7218	-0.07638949
126	0x3d917ec0	0.07104254
127	0xbe15b435	-0.14619525
128	0xbe2eb81b	-0.17062418
129	0x3d910164	0.07080343
130	0xbd0fb2cd	-0.035082627
131	0x3d996d1e	0.074915156
132	0xbd532909	-0.051552806
133	0x3e05f2f9	0.13080968
134	0x3dda7b5c	0.1066806
135	0xbd263226	-0.04057517
136	0xbcfb032c	-0.03064116
137	0x3e1381c3	0.14404969
138	0x3e0caa93	0.13736944
139	0xbe310c8a	-0.1728994
140	0x3db1251f	0.086496584
141	0x3b6a0304	0.0035707364
142	0xbd0f768f	-0.035025176
143	0x3b335145	0.0027361673
144	0x3c8b6bb1	0.017019125
145	0xbd511f54	-0.051055267
146	0x3d099db5	0.033597667
147	0x3cd3f775	0.025874833
148	0x3daa87c6	0.08326678
149	0xbe346616	-0.17617068
150	0x3c408ba4	0.011752043
151	0x3d386ccc	0.04502563
152	0xbd97f149	-0.07419068
153	0x3da0a9c8	0.07844883
154	0x3c51a90e	0.012796653
155	0x3da9c91b	0.08290311
156	0x3d16fe78	0.036863774
157	0xbcfa48a1	-0.03055221
158	0x3daebb8f	0.08531868
159	0xbdf710aa	-0.12063725
160	0xbcfda987	-0.030964626
161	0xbc54b1bb	-0.012981827
162	0x3e1762c3	0.14783768
163	0xbd8a38bd	-0.06749103
164	0xbd1b8360	-0.037967086
165	0x3cebb00c	0.02877047
166	0xbd2eb0c6	-0.042649053
167	0x3d89a7b5	0.06721441
168	0x3e08c8bf	0.13357829
169	0xbd7fbb8c	-0.062434718
170	0xbd9830e4	-0.074312
171	0x3db39396	0.08768384
172	0xbd0646ce	-0.03278237
173	0xbdc69041	-0.09695483
174	0xbe00e6c6	-0.12588033
175	0x3e1e83d1	0.15479971
176	0x3db0d7a4	0.0863488
177	0xbd987d95	-0.07445828
178	0xbca43de1	-0.020049037
179	0xbcc3b7f9	-0.023891436
180	0xbb5cc970	-0.0033689402
181	0x3e318d09	0.17338957
182	0x3cbbbef3	0.0229182
183	0xbd48159e	-0.04884874
184	0xbe2020d4	-0.15637523
185	0x3d8d2441	0.068916805
186	0x3da3515a	0.07974501
187	0xbe339412	-0.17536953
188	0x3d6349c2	0.055490263
189	0x3e055a6e	0.13022777
190	0x3dc2235b	0.094794
191	0x3e60ed36	0.21965489
192	0x3d04904f	0.032364186
193	0xbce5862a	-0.028018076
194	0x3da48dfc	0.08034894
195	0xbd6a8645	-0.057256956
196	0xbda7d0f7	-0.08194154
197	0x3cb5cb1d	0.022191579
198	0xbd14cacb	-0.03632621
199	0x3d8e960f	0.06962215
200	0x3e03e502	0.12880328
201	0x3daf25a0	0.08552098
202	0xbc3b1552	-0.011418657
203	0xbd532048	-0.051544458
204	0xbd65eb83	-0.056132805
205	0x3daf0e28	0.08547622
206	0xbe008117	-0.12549244
207	0xbd72481f	-0.05915081
208	0xbe036264	-0.12830502
209	0x3e3e57de	0.18588206
210	0x3e2bc0be	0.16772744
211	0x3d854931	0.06508101
212	0xbdd6e675	-0.10493175
213	0xbd27f257	-0.041002598
214	0xbc28d49a	-0.010304594
215	0xbd8a013d	-0.067385174
216	0x3d301d42	0.042996652
217	0x3e2c14ff	0.16804884
218	0x3c8b4d0e	0.017004516
219	0xbc0ae220	-0.008476764
220	0x3de9503d	0.11392257
221	0xbd39af42	-0.045333154
222	0x3bed107f	0.0072346325
223	0x3cbb6c1e	0.022878703
224	0xbcb6215c	-0.022232704
225	0xbd58a4d9	-0.052891586
226	0xbcad7690	-0.021174699
227	0x3e318025	0.1733404
228	0x3db7c128	0.089723885
229	0x3bd8f8a7	0.0066214385
230	0x3e2fe592	0.17177418
231	0x3d535e7b	0.051603775
232	0xbbb65073	-0.0055637895
233	0xbe12d496	-0.14338908
234	0xbda6c68b	-0.08143338
235	0xbe1959f1	-0.14975716
236	0xbe4cbc47	-0.19993697
237	0x3cd72351	0.026261957
238	0xbe339298	-0.1753639
239	0x3d8ba8a0	0.06819272
240	0x3e376a6b	0.17911689
241	0x3d6eb21e	0.058275335
242	0xbb254138	-0.0025215875
243	0x3d4bd1c3	0.04976059
244	0xbde56800	-0.11201477
245	0x3e215f83	0.15759091
246	0xbce907a1	-0.02844602
247	0x3d49db9c	0.0492817
248	0x3ddb9fe0	0.10723853
249	0xbdef6b39	-0.11690373
250	0xbe1ab0e2	-0.15106538
251	0x3d2445fc	0.040105805
252	0xbdf393c0	-0.118934155
253	0xbd95a0d0	-0.07306063
254	0x3b51bfd4	0.0032005208
255	0x3d49e730	0.049292743

tower.1.conv1.bias f4 [32]
0	0x3bf1d5d6	0.0073802276
1	0x3a7bb1a1	0.0009601359
2	0x3c08b4cb	0.008343886
3	0xbbb16323	-0.0054134293
4	0xbba9a5a0	-0.0051772147
5	0xbb749d3c	-0.0037325164
6	0xbab08d8a	-0.0013469916
7	0x3c0105f3	0.007874954
8	0x39e74610	0.00044111954
9	0xb8c8cf23	-9.5753254e-05
10	0xbaf0aaa3	-0.00183614
11	0x3c7060a4	0.014671478
12	0x3c58ad80	0.013224959
13	0xbb95d49e	-0.004572465
14	0x3b16ef4f	0.0023030823
15	0xbc2f1ddb	-0.01068827
16	0x39ed9868	0.00045317714
17	0x3c2455a9	0.010030189
18	0xbb39a49b	-0.0028326872
19	0x3beaf766	0.0071706055
20	0x3c30d3e9	0.010792711
21	0x3c76f7cc	0.015073728
22	0x3bf22350	0.0073894635
23	0xba34463d	-0.00068769214
24	0x3b29eac4	0.0025927285
25	0xbbd51c9f	-0.006503656
26	0x3b865d80	0.0041005015
27	0x3bf48039	0.0074615744
28	0x3aa6757d	0.0012699809
29	0x3bdd4f7f	0.0067538614
30	0x3bf0e949	0.0073520285
31	0x3c8d5be2	0.017255727

tower.1.conv2.weight f4 [32, 32, 3, 3]
0	0xbd6f5cf5	-0.05843826
1	0xbd063c1d	-0.032772172
2	0xbc89d971	-0.016827317
3	0xbd17c5ed	-0.03705399
4	0xbd7f359d	-0.06230699
5	0xbbb6bced	-0.005576721
6	0xbda1626e	-0.07880102
7	0xbc875e73	-0.01652453
8	0xbc588169	-0.013214448
9	0x3d55dbb7	0.05221149
10	0x3e000d50	0.12505078
11	0xbd9dfa1d	-0.07713721
12	0x3d64171b	0.055686098
13	0x3e182f39	0.14861764
14	0x3bf452ac	0.0074561443
15	0x3d4ca979	0.04996631
16	0x3dc501ad	0.0961946
17	0x3dca2256	0.0986983
18	0x3cb9ac07	0.022665037
19	0xbc23e971	-0.010004387
20	0xbe3f1595	-0.18660577
21	0xbd68f5b5	-0.05687495
22	0xbd0d1cdc	-0.03445135
23	0xbd3bdfa5	-0.04586758
24	0x3dc959d1	0.09831584
25	0x3d858b45	0.06520704
26	0x3d58f192	0.052964754
27	0x3da272c3	0.07932045
28	0x3c890565	0.016726205
29	0x3d866add	0.06563351
30	0xbd0ce16d	-0.03439467
31	0x3bd07595	0.006361673
32	0x3c90b3c1	0.017663838
33	0xbe2374d1	-0.1596253
34	0x3d5a6bb0	0.053325355
35	0xbdd12882	-0.102128044
36	0x3caa5cf6	0.02079628
37	0xbc9b8b07	-0.018987192
38	0x3d8b1d1d	0.06792662
39	0xbcb6a5b3	-0.022295808
40	0x3db5524c	0.088535875
41	0x3dcef3a7	0.10105067
42	0x3a62e863	0.0008655844
43	0x3bb67c8f	0.0055690478
44	0x3da8480f	0.08216869
45	0x3d18af3d	0.037276495
46	0xbc7fa13b	-0.015602405
47	0x3d7ebeb3	0.062193584
48	0xbd72866e	-0.059210233
49	0x3d4fb5c4	0.050710455
50	0xbcc37c69	-0.023863034
51	0xbd877243	-0.066135906
52	0xbe270aa4	-0.16312653
53	0xbd8394d8	-0.06424874
54	0xbd977d6e	-0.07396971
55	0x3d2555be	0.040364973
56	0xbcf6500e	-0.03006747
57	0x3d9a5cbd	0.0753722
58	0xbd6a2792	-0.057166643
59	0x3da9190e	0.08256732
60	0xbde9ac96	-0.11409871
61	0xbdb37312	-0.08762182
62	0xbd7cd68f	-0.061728057
63	0x3e346b79	0.17619123
64	0x3c9a47a8	0.018832996
65	0x3e210843	0.15725808
66	0x3dea308b	0.1143504
67	0x3c241ab7	0.010016135
68	0xbdf3a988	-0.1189757
69	0xbe4b0033	-0.19824295
70	0x3dea988f	0.114548795
71	0xbc9c3e72	-0.019072745
72	0xbc007ae8	-0.007841803
73	0xbe12baad	-0.14329024
74	0xbc864d5f	-0.016394315
75	0xbc2358c7	-0.009969897
76	0xbd9275e2	-0.071513906
77	0x3d6b12ff	0.057391163
78	0xbd3ca8c2	-0.046059377
79	0xbcbb4aab	-0.022862753
80	0xbd0c44dc	-0.034245357
81	0x3d5f661e	0.054540746
82	0xbd6add86	-0.057340167
83	0x3dc4bf1b	0.09606763
84	0xbdd75f52	-0.10516228
85	0x3de75a3d	0.112965085
86	0x3d1c61b6	0.038179122
87	0xbda64bec	-0.0811995
88	0x3d2236d0	0.039603055
89	0xbcbed396	-0.023294251
90	0x3cce443c	0.025179021
91	0x3e09b712	0.13448742
92	0xbdd96706	-0.10615353
93	0xbdc42494	-0.09577289
94	0x3dfd73ad	0.12375579
95	0xbcc3151a	-0.023813773
96	0xbc086464	-0.008324716
97	0xbcdd2606	-0.02699567
98	0xbd97ada3	-0.074061655
99	0x3dc4dd89	0.09612567
100	0x3c52ddcf	0.012870266
101	0x3d337e22	0.04382146
102	0xbd7219d2	-0.059106655
103	0xbe420d7f	-0.18950461
104	0x3ca8176b	0.020518979
105	0x3d4318aa	0.047630943
106	0xbcb4583b	-0.022014728
107	0xbdd6f3c1	-0.10495711
108	0x3d6ccaa4	0.05781044
109	0xbc36d705	-0.011159663
110	0x3de09899	0.10966606
111	0x3d7a2e73	0.061079454
112	0x3e59744c	0.2123577
113	0xbd83fc14	-0.064445645
114	0x3bccd37f	0.0062507982
115	0x3dd9749f	0.10617947
116	0xbcd50460	-0.026003063
117	0xbe79ca97	-0.24393688
118	0xbdf81f94	-0.12115398
119	0xbd6bc21b	-0.05755816
120	0xbda94aeb	-0.082662426
121	0x3d980750	0.0742327
122	0xbe09e293	-0.13465337
123	0xbd683821	-0.056694154
124	0x3b328543	0.0027240075
125	0x3d588815	0.052864153
126	0x3d6b66b2	0.057470985
127	0x3d837071	0.06417931
128	0xbdb657be	-0.08903454
129	0x3b93a777	0.0045060473
130	0x3d347490	0.044056475
131	0x3dac6c8e	0.08419143
132	0xbd993e9f	-0.07482647
133	0xbd68aa37	-0.056802955
134	0x3cfcbb5e	0.030851062
135	0x3dbbe3f3	0.09174337
136	0x39b4d073	0.00034487582
137	0xbc3ea7fe	-0.011636732
138	0x3d564f93	0.05232198
139	0xbc13f83c	-0.009031352
140	0x3c0532ad	0.008129758
141	0xbd2bc4e7	-0.041935828
142	0x3d185f20	0.037200093
143	0xbd0da615	-0.034582216
144	0x3d6ac76d	0.057319093
145	0x3ceeab9b	0.029134562
146	0xbd295418	-0.041339964
147	0xbe36d0f5	-0.17853148
148	0x3cd89823	0.026439732
149	0x3e63cc35	0.22245868
150	0x3dc1233e	0.0943055
151	0xbadffdc0	-0.0017089173
152	0xbc3b37ce	-0.011426879
153	0xbdc6e430	-0.09711492
154	0x3e133a59	0.14377727
155	0xbd4ba9b2	-0.04972238
156	0xbc176ea9	-0.009242692
157	0xbd6ba8c1	-0.057533983
158	0xbcfa57ac	-0.030559383
159	0xbdb55169	-0.088534184
160	0xbc8e80d0	-0.017395407
161	0xba68fffe	-0.00088882435
162	0xbe0e6a2c	-0.13907689
163	0x3d83405c	0.0640876
164	0x39ef7423	0.0004567216
165	0x3d2fce47	0.04292133
166	0x3db28656	0.08717029
167	0xbdc8284b	-0.0977331
168	0x3be6f949	0.00704876
169	0xbde04db2	-0.10952319
170	0xbcbff2d2	-0.023431215
171	0x3d337a21	0.043817643
172	0x3df8041a	0.12110157
173	0x3da5edaa	0.081019714
174	0xbdea7a0a	-0.11449058
175	0x3ca1e759	0.019763635
176	0xbd9d231e	-0.07672714
177	0xbdd75487	-0.10514169
178	0xbe15baea	-0.14622083
179	0xbd6033e8	-0.054737
180	0xbd243928	-0.04009357
181	0xbdbe7c92	-0.09301104
182	0xbc5cd30c	-0.013478052
183	0x3da06807	0.07832342
184	0x3ce91536	0.028452497
185	0xbd65adf7	-0.05607411
186	0xbd8d1e25	-0.06890515
187	0x3e278d8e	0.16362593
188	0x3d88adf7	0.06673806
189	0xbacaff7f	-0.0015487521
190	0xbe4b5b70	-0.198591
191	0xbd8b4e45	-0.06802038
192	0xbd95d178	-0.073153436
193	0xbae61231	-0.0017553029
194	0xbce74685	-0.028231869
195	0x3e193a48	0.14963639
196	0xbd351019	-0.044204805
197	0xbd9326d1	-0.07185138
198	0xbd7520b8	-0.059845656
199	0x3b97dc90	0.0046344474
200	0xbe05fed3	-0.13085489
201	0xbbfd1f6e	-0.007724694
202	0xbb2e906b	-0.0026636373
203	0x3d4f35a2	0.050588258
204	0xbdec7a19	-0.11546726
205	0x3df1761c	0.11790106
206	0xbd354595	-0.04425581
207	0xbde38780	-0.11109829
208	0x3d989501	0.07450295
209	0xbde5f1c2	-0.11227752
210	0xbd7d6d56	-0.06187185
211	0xbe00c7de	-0.12576243
212	0xbcdc7d20	-0.026915133
213	0xbcdf95f0	-0.027293175
214	0xbcd33686	-0.025782835
215	0x3da02516	0.078195736
216	0x3c78c3d3	0.015183407
217	0xbb9c11b1	-0.004762851
218	0x3d8d3eda	0.068967536
219	0xbcf174f8	-0.02947472
220	0xbd01645d	-0.031589855
221	0xbe0c5c97	-0.13707195
222	0xbd67e955	-0.056619007
223	0xbd9d3793	-0.076766156
224	0x3ccce4b3	0.025011396
225	0x3e074516	0.13209948
226	0x3db9200d	0.09039316
227	0x3e3f2721	0.1866727
228	0xbb99ac25	-0.0046897107
229	0x3b46a653	0.003031154
230	0xbe483a17	-0.1955341
231	0x3d6b8092	0.05749566
232	0x3bd90a86	0.006623569
233	0x3de3006e	0.11084066
234	0xbca41916	-0.020031493
235	0xbcc3d8af	-0.023907034
236	0x3dc45bfe	0.095878586
237	0xbe2e5a50	-0.17026639
238	0x3d7ba498	0.061436266
239	0xbd4106ca	-0.047125615
240	0x3d923707	0.07139402
241	0xbe19d78f	-0.15023635
242	0xbe04432b	-0.12916248
243	0x3d8bde5e	0.068295226
244	0xbe044b7d	-0.12919421
245	0xbb8ca8af	-0.0042925696
246	0xbc7176ae	-0.014737768
247	0x3ca7a8ba	0.020466197
248	0xbc76051f	-0.015015869
249	0x3d04db0d	0.032435466
250	0x3dee7b6c	0.116446346
251	0x3db3ba54	0.08775774
252	0xbd2d40b0	-0.04229802
253	0x3d1684ac	0.03674762
254	0x3aa004b3	0.0012208432
255	0x3e0493b0	0.12946963

tower.1.conv2.bias f4 [32]
0	0x3bb415a7	0.005495745
1	0x3b7aa6cd	0.0038246394
2	0x3c1d31f2	0.009594427
3	0xba06ddd6	-0.00051447505
4	0x3b0df45e	0.0021660547
5	0x3c1072a4	0.008816395
6	0x3b253bde	0.0025212686
7	0xbb4a3f83	-0.003086061
8	0x3c122ec6	0.0089222845
9	0x39b9cf9f	0.0003544064
10	0x3b9568b7	0.004559602
11	0x3ca7f001	0.020500185
12	0xba528256	-0.0008030286
13	0xbb2d26a3	-0.0026420734
14	0x3bf6698b	0.007519906
15	0xba46b12c	-0.0007579501
16	0xbc4550ac	-0.012043159
17	0xba9198c4	-0.001110815
18	0x3c132de8	0.008983113
19	0xba57f4b2	-0.00082380616
20	0x39e97ed3	0.00044535715
21	0x3c3649d9	0.011126005
22	0x3bed9431	0.007250332
23	0xbaa15890	-0.0012309719
24	0x39f1d14a	0.00046123035
25	0x39c736e0	0.00037997123
26	0xbb671e59	-0.0035265891
27	0xbc0f5d13	-0.008750218
28	0x3c204a39	0.009783321
29	0xbbaa5472	-0.005198055
30	0x3c4c5e9c	0.0124737285
31	0x3c615fc9	0.013755747

policy_conv.weight f4 [16, 32, 1, 1]
0	0xbddfca94	-0.109273106
1	0xbefe0591	-0.49613622
2	0xbe655fd6	-0.2239984
3	0x3dc1e745	0.09467939
4	0x3e4af293	0.19819097
5	0xbea10ae9	-0.31453636
6	0xbc17d76e	-0.009267671
7	0x3f291240	0.6604347
8	0x3ec6b016	0.38806218
9	0x3daa6a62	0.08321072
10	0xbd3d01cf	-0.046144303
11	0x3e486894	0.19571143
12	0x3dd0bc71	0.10192192
13	0x3af71bac	0.0018852851
14	0xbeee77eb	-0.46575865
15	0xbe9024d7	-0.28153107
16	0xbe7f6482	-0.24940684
17	0x3db7db12	0.08977331
18	0x3e3256ad	0.17415877
19	0x3e137a0d	0.14402027
20	0x3eb1d9d0	0.3473649
21	0x3e882203	0.2658845
22	0xbe7fd031	-0.24981762
23	0xbd0f7dc3	-0.035032045
24	0xbcae9034	-0.021308996
25	0x3e9bbbd3	0.30416736
26	0x3d560e6c	0.052259848
27	0x3e852ef6	0.2601239
28	0x3dc85c9b	0.09783288
29	0x3d337c60	0.043819785
30	0x3d0e562c	0.03475015
31	0xbe4cf95c	-0.20016998
32	0xbe730b1c	-0.23734707
33	0xbc665c33	-0.014060068
34	0xbe9013c0	-0.28140068
35	0x3ea09541	0.31363872
36	0xbd8342e0	-0.0640924
37	0xbc83cb81	-0.01608825
38	0x3d3ffd6c	0.04687254
39	0x3da4f80d	0.080551244
40	0xbd18c9e2	-0.037301905
41	0xbe2339fa	-0.15940085
42	0x3e0d235a	0.13783017
43	0xbdca4b25	-0.09877614
44	0xbdce5758	-0.10075253
45	0xbda9ea12	-0.082965985
46	0x3e4c96f7	0.19979464
47	0xbe384035	-0.17993243
48	0xbd0d9b9a	-0.03457222
49	0x3ddd42f7	0.10803788
50	0x3ddb0454	0.10694185
51	0x3e830af0	0.25594282
52	0xbe2769b9	-0.16348924
53	0xbeb723e2	-0.35769564
54	0x3f450058	0.7695365
55	0x3f0aec65	0.5426696
56	0xbe3ad3bc	-0.18244833
57	0xbd0f462e	-0.034979038
58	0xbc2db0e6	-0.010601258
59	0xbe82a947	-0.25519773
60	0x3f0618bd	0.523815
61	0xbe9493f3	-0.29019126
62	0xbeee0e35	-0.46495214
63	0x3e9ab18e	0.30213588
64	0x3da04cac	0.07827124
65	0xbdefeaa6	-0.117146775
66	0x3e1a7381	0.15083124
67	0xbe548115	-0.20752366
68	0x3dd771bb	0.10519739
69	0xbeffde2a	-0.49974185
70	0x3f151f96	0.5825132
71	0xbe851f7e	-0.2600059
72	0x3d75915e	0.059953086
73	0x3e9211a9	0.285291
74	0x3e7dd640	0.24788761
75	0x3e2a5c01	0.16636659
76	0x3c020f08	0.007938154
77	0x3ec67edf	0.3876867
78	0x3ec32f8a	0.38122207
79	0x3d16ed9f	0.036847707
80	0xbc22d6d8	-0.009938918
81	0xbd963a30	-0.07335317
82	0xbe85df3d	-0.2614688
83	0x3eb548ac	0.35407007
84	0xbd3a880c	-0.0455399
85	0xbdf52cb6	-0.119714186
86	0xbebc4a11	-0.36775258
87	0xbd261c79	-0.040554497
88	0xbdec6162	-0.11542012
89	0x3ecc19c6	0.39863414
90	0xbbe76ef8	-0.007062789
91	0x3da863c7	0.08222156
92	0x3e2cc799	0.16873015
93	0xbe2a2440	-0.16615391
94	0xbe2f5b31	-0.1712463
95	0x3dcac146	0.09900145
96	0x3e0d20aa	0.13781992
97	0xbe4b7201	-0.19867708
98	0x3e83a49f	0.25711533
99	0x3caeacee	0.021322694
100	0xbe6fb7d5	-0.2340997
101	0x3d623f5b	0.0552362
102	0xbc14d96e	-0.009085042
103	0xbf2a8305	-0.6660617
104	0x3dccd166	0.10000877
105	0xbe9e2fbf	-0.30895802
106	0x3d4eb496	0.05046519
107	0x3eab7d6d	0.3349413
108	0xbe7dd7d2	-0.2478936
109	0x3e580572	0.21095827
110	0xbd9d1cc4	-0.07671502
111	0x3d4b313d	0.049607504
112	0x3e81227b	0.2522162
113	0x3baf56a5	0.005350905
114	0x3da36485	0.07978157
115	0x3ce780cf	0.028259663
116	0xbe7785f6	-0.24172196
117	0x3eaf0db5	0.34190145
118	0x3dad1107	0.08450513
119	0xbe715838	-0.23568809
120	0xbe998faf	-0.29992434
121	0xbe5edd0b	-0.21764009
122	0xbe81862d	-0.2529768
123	0xbe05a086	-0.13049516
124	0x3e8183b9	0.2529581
125	0x3de70a36	0.112812445
126	0x3e4f23ff	0.20228575
127	0xbd326c8e	-0.043560557
128	0x3d82ac28	0.063804924
129	0xbe662054	-0.2247327
130	0x3eb8b150	0.3607278
131	0xbdc097ec	-0.09403977
132	0x3e881aba	0.2658289
133	0xbe3ee1a2	-0.1864076
134	0x3efe9d7f	0.49729535
135	0xbb840524	-0.004028933
136	0xbedaf8e9	-0.42768028
137	0xbc9e037a	-0.019288767
138	0x3e69b98e	0.2282469
139	0x3b5c6e00	0.00336349
140	0x3e465f4b	0.19372289
141	0xbeb276ea	-0.3485635
142	0xbe9cfe71	-0.30662873
143	0x3ded66fe	0.1159191
144	0x3dd86c0d	0.10567484
145	0xbeaed475	-0.34146467
146	0xbed2ade9	-0.41148308
147	0xbc06c7c2	-0.008226337
148	0x3c9bdc42	0.019025926
149	0x3e3283c6	0.1743308
150	0xbef1dde2	-0.47239596
151	0xbe6c7f95	-0.23095544
152	0xbe36d7d8	-0.17855775
153	0x3eab9399	0.33511046
154	0x3e437cd9	0.19090594
155	0xbc7a5ca8	-0.01528088
156	0x3e470ba3	0.19438033
157	0x3e79728e	0.24360105
158	0x3dd5655b	0.10419723
159	0x3cc6c425	0.02426345
160	0x3db603bd	0.08887432
161	0xbe2ea5ad	-0.17055388
162	0xbddceb54	-0.10787073
163	0x3e391e0c	0.18077868
164	0x3e8d60ae	0.27612823
165	0x3defb384	0.11704162
166	0x3e133da1	0.14378978
167	0x3ec12ff4	0.37731898
168	0x3caeba54	0.021329083
169	0xbe242bbb	-0.16032307
170	0xbe08966b	-0.1333863
171	0xbd8bcc8a	-0.06826122
172	0xbec72105	-0.3889238
173	0x3eb56742	0.35430342
174	0x3e096e0a	0.13420883
175	0xbeb39285	-0.35072723
176	0xbe89f362	-0.269435
177	0xbdcd1ce4	-0.10015276
178	0x3e7a1ce1	0.24425079
179	0x3e0940f8	0.1340369
180	0x3e0c1461	0.13679649
181	0x3d8a33b8	0.06748146
182	0xbd323489	-0.043507133
183	0x3e9aa079	0.30200556
184	0x3d2d90f0	0.04237455
185	0xbde766f1	-0.112989314
186	0xbeed2c6d	-0.46322957
187	0xbea19e31	-0.31566003
188	0xbe613a96	-0.21995005
189	0xbf0c74cc	-0.5486572
190	0x3e192049	0.14953722
191	0x3e4175b0	0.1889255
192	0x3ebf79a2	0.37397486
193	0xbed34281	-0.41261676
194	0x3d254b25	0.040354867
195	0x3d1894c1	0.037251238
196	0x3d85d415	0.06534592
197	0x3c2d20d0	0.010566905
198	0x3e616406	0.22010812
199	0x3e379331	0.17927243
200	0x3e9f6893	0.3113447
201	0xbdae37ff	-0.08506774
202	0xbeb7cb28	-0.35897183
203	0x3d99b58d	0.07505331
204	0xbeb537f7	-0.3539426
205	0xbde64aea	-0.112447575
206	0xbed56761	-0.41680434
207	0x3dfedc08	0.124443114
208	0xbe066134	-0.13123018
209	0xbe233350	-0.15937543
210	0x3d578a81	0.052622322
211	0x3e74df0a	0.23913208
212	0x3eeb1f1d	0.45922175
213	0x3eb0d4ca	0.34537345
214	0x3cd0beb2	0.025481556
215	0xbd9718e5	-0.07377795
216	0xbd9cc43d	-0.07654617
217	0x3e8cbf7b	0.27489838
218	0x3ea79b9a	0.32735902
219	0xbee0cb43	-0.43905076
220	0x3c95f9e5	0.018307636
221	0xbbb65b0e	-0.005565054
222	0xbe2497da	-0.16073552
223	0x3e6bdac7	0.23032676
224	0x3e818256	0.2529475
225	0x3ea11cf1	0.31467393
226	0xbe47af36	-0.19500431
227	0xbe96029e	-0.29298872
228	0xbf121281	-0.57059485
229	0x3d9cd5f4	0.07657996
230	0x398bbede	0.00026654353
231	0xbeed0abc	-0.46297252
232	0x3e57cd8c	0.21074504
233	0x3c28890f	0.010286584
234	0x3e1b7cd5	0.15184338
235	0x3f064890	0.5245447
236	0x3e47dc5e	0.19517657
237	0x3df9ebc2	0.1220317
238	0xbdf032a4	-0.11728409
239	0x3e758144	0.23975092
240	0xbea2e797	-0.31817314
241	0x3e1dc8da	0.1540865
242	0x3e8563fd	0.26052848
243	0x3e0bbf4c	0.13647193
244	0x3ed66bb9	0.4187906
245	0x3dfe0ad8	0.12404412
246	0x3d6c7c29	0.057735596
247	0xbe0228bd	-0.12710853
248	0xbf229ef5	-0.635238
249	0x3d86ec22	0.065880075
250	0x3d6311ea	0.055437006
251	0x3e0ae967	0.13565598
252	0x3edb5e8e	0.42845577
253	0x3eaf6a9f	0.34261033
254	0xbc59c25e	-0.01329097
255	0xbe7da714	-0.24770766

policy_conv.bias f4 [16]
0	0xbc307c5d	-0.010771838
1	0x3c11efd8	0.008907281
2	0x3c3c3582	0.011487367
3	0xb8572bba	-5.1300718e-05
4	0xbaeab25e	-0.0017905941
5	0x3c607b90	0.013701335
6	0x3c9697a3	0.018382853
7	0x3c1ac1a3	0.009445581
8	0x3c538ba8	0.012911715
9	0x3cb86654	0.022509731
10	0x3c84bcfd	0.016203398
11	0x3a210b8e	0.00061433844
12	0xbb9e82d9	-0.0048373756
13	0xbb85becc	-0.0040815827
14	0xbb8a3a72	-0.004218393
15	0x3c35c75d	0.011094895
