ttt/runs/run_20251025_150038/checkpoints/alphazero_final.pt (torch, 248474 bytes, 19 tensors)

stem.0.weight f4 [32, 5, 3, 3]
00000000: 63e2 8cbe 1d4f f53d 73c3 253d dc37 05bf
00000010: bcd4 89bb 1439 33be 2e30 313d 72f1 c73e
00000020: 2995 ea3d a2d5 20be cf88 973e 9035 263d
00000030: 3b75 0b3b 0a1e 263d 27b2 1fbd c8b1 cbbe
00000040: 98f7 f73b f009 81bd a36f 853c c42f 813c
00000050: 475e c03e 412b 01bf 9ec6 3bbd cb19 e93d
00000060: 73e8 873c d134 c8be eaa8 833e 458d df3d
00000070: c757 d2be 0117 163e 7b5e 103e 2fba a2bd
00000080: c5e5 9bbd e07d 5bbe 3037 863c e703 6abd
00000090: 3969 9fbe 12fb 673d fe6c 223e 0a3e 1f3e
000000a0: 4f3b d43d ab57 95bd dfd3 7e3d 7dad f83e
000000b0: eae6 ef3b c808 633e 5dff 41bb ecaa 00be
000000c0: dabf c8bd e2d3 f33e 314a 4abe 1241 52be
000000d0: 6813 323e 2674 ee3d 7852 603e c2ec 8f3e
000000e0: ccc3 b4be 6040 b13d cd51 18bb bda9 9a3e
000000f0: 3afa 8abd 6673 71bd 175e e0bd eec6 89be
00000100: b2be 813e 6fda 063d 6aee 293d f6a2 283e
00000110: 9edd f63d 2c03 ffbb 804a 7fbd 102a 6d3e
00000120: 7325 493e 7748 64be b2cf 44bd caf0 803d
00000130: 4940 a0bd f080 a93e 3d46 00bd 3e5c 9bbe
00000140: 3574 a1bd ee12 0b3d e86d 073d 3436 7fbe
00000150: 9d21 cb3c 9e5e 9d3d 651d 1b3d 6cd6 a8bc
00000160: a12c a63c 05f5 64bd 21fb d5bd fb22 223e
00000170: 83a4 9f3d 8be0 7fbe 3a73 48be 1979 ef3e
00000180: 9c83 c5bd b8cb a43d f6aa 93bb f422 3f3e
00000190: fed1 b33e 46ed e0bd 1ecd abbb fc26 cdbd
000001a0: 9bb3 9b3b 5de9 a63e 2d02 f73e 5c2d 43be
000001b0: 7ffa e73c e0cc 96be 2fd7 ed3d 2dc4 fdbc
000001c0: 21fd 8bbd da60 20be c2cf d9bd ba4d e13e
000001d0: 02ac 46be 6ef5 27bd 3d2e 93be 31e5 2cbe
000001e0: 3d74 a7bd 680a 383e f893 0e3c a789 283e
000001f0: 4c88 473e 1730 653c a543 8ebe 9760 a0bd
00000200: 2cd0 45bd 36f3 173e 7ee5 59be 7a14 083e
00000210: 92fb 85bc 1529 e7bc 7fca 9c3e fc49 bf3d
00000220: b825 a3be 3b90 893d f67c e13e 9925 d23c
00000230: 7a24 863d 020c 813e 8b43 51be f0fa 7cbe
00000240: e8aa 95bd 39a0 e2bd d6ec 7a3e 9c4a 993e
00000250: 3105 313d 62a8 acbd a0df ddbd 2da8 fb3e
00000260: fb64 653e 0157 9c3d 9e5b e4bd 2863 18be
00000270: 3c05 16be 17e0 843e 7f73 363e 45d9 c5bd
00000280: 579d b7bc bdb0 27be 2b7e b93d cb81 00bd
00000290: 4c9b 4e3e 1f31 4d3e 5e7d 6a3d ad20 b83b
000002a0: 0c6f df3e 0b86 e23e 0c4e bfbd e2d4 693c
000002b0: 404d 163d 6efa 9e3e 9158 033e 7138 e93e
000002c0: 7666 383e 09db d13e 7c9c 2e3e f613 b93e
000002d0: ff57 133f ae1d 3d3b 6a7e b83e 238e 6dbe
000002e0: 4065 9a3e 82f7 183d d71b 89be 5508 0f3e
000002f0: 5ef1 9a3e 7ba4 74bd 6837 2a3e 7206 c7be
00000300: a2da 93be 8c22 8e3e 401e e9bd f71d 5c3d
00000310: 2f60 acbe 7d73 fabd 5edc 993c 0c35 07be
00000320: cc13 9fbd 3144 123e e51b c1bd b3b1 153e
00000330: 6a33 64bb ea4f 0fbe b15b f73c 4967 e1bd
00000340: 07c7 803e dc13 883d 1eec 893e 47bd ec3e
00000350: 8650 dbbc f2dd 16be ddbf 41be 1874 213e
00000360: 4629 d1be 8670 d23c 59f0 1abe cd61 3e3e
00000370: aca4 3ebd fc4d 673e eb57 83bc 1d09 79be
00000380: 7f36 393d c8ad 55be 4a42 aa3d af8b 6cbe
00000390: 5161 81bd 0e76 5fbd 5722 4cbc 49a3 983e
000003a0: 0641 f93d 13ad 08bd 941e 80bd 8a2a d53d
000003b0: e7ce bf3e 6873 94bd 8ab8 593d 8798 a03e
000003c0: 3a84 a8be d49e 253e 5552 fcbe 54c0 0dbe
000003d0: 66a3 ec3d 4ebf 8f3e 13be 9fbe 21d2 303e
000003e0: ec28 43bd 2da0 5c3e 4bfd b83c d100 03be
000003f0: 0cbe 99bd 8d55 4a3c 4f9b 21bd a63f 843e
-0.2751647 0.1197798 0.040469598 -0.5203836 -0.004206268 -0.17502242 0.04325884 0.39051396
0.11454231 -0.15706494 0.29596564 0.040578425 0.0021279592 0.04055599 -0.03898826 -0.39784074
0.0075673573 -0.063007236 0.016288584 0.015769847 0.37571928 -0.50456625 -0.045843713 0.11381873
0.016590333 -0.39102796 0.2571481 0.10915617 -0.41082594 0.14657213 0.14098541 -0.07945668
-0.076121844 -0.21434736 0.016383737 -0.057132628 -0.31134966 0.056635924 0.1586189 0.1555101
0.10362875 -0.07292112 0.062213775 0.4856986 0.0073212283 0.22171319 -0.0029601671 -0.12565202
-0.09802218 0.4762259 -0.19754864 -0.20532635 0.17390215 0.11643247 0.2190646 0.2811032
-0.3530563 0.08654857 -0.0023242116 0.30207625 -0.06786008 -0.058947943 -0.10955446 -0.26909584
0.253408 0.03292316 0.041487135 0.16468415 0.12053989 -0.0077823605 -0.062326908 0.23160577
0.19643192 -0.22293268 -0.048049636 0.06295927 -0.078247614 0.33106184 -0.031316984 -0.30343813
-0.07883493 0.0339536 0.0330638 -0.2492302 0.024796301 0.076840624 0.03786983 -0.020610057
0.020284953 -0.05589773 -0.1044829 0.15833656 0.0779505 -0.24988 -0.19575205 0.46772078
-0.09644243 0.08046669 -0.004506464 0.18665677 0.3512115 -0.10982756 -0.0052429577 -0.10017201
0.0047516352 0.32599917 0.48243847 -0.19060272 0.028317688 -0.29453182 0.11613309 -0.030977333
-0.0683539 -0.15661946 -0.1063533 0.44004613 -0.19401553 -0.041005544 -0.28746215 -0.16884305
-0.081764676 0.1797272 0.008702271 0.1645876 0.19485587 0.013988516 -0.27785984 -0.07830923
-0.04829423 0.14838871 -0.2127895 0.13289061 -0.01635531 -0.028217832 0.30623242 0.09340283
-0.31864715 0.06716963 0.4404065 0.025652694 0.06549926 0.25204474 -0.20435922 -0.247051
-0.073079884 -0.11065716 0.24504408 0.29939735 0.04321784 -0.08430554 -0.10833669 0.49151745
0.22401802 0.07633782 -0.11150287 -0.14881575 -0.14650434 0.25952217 0.17817496 -0.096605815
-0.022413893 -0.16376014 0.09057268 -0.03137378 0.20176429 0.2003827 0.057248466 0.0056191296
0.4363941 0.44242892 -0.09341058 0.014271947 0.036694765 0.31050438 0.12826754 0.45550874
0.18007836 0.40987423 0.17051882 0.3614804 0.57556146 0.0028856802 0.36033946 -0.23198752
0.30155373 0.037345417 -0.26779053 0.13968022 0.30262274 -0.059727173 0.16622698 -0.38872105
-0.2887774 0.27760732 -0.11382723 0.053739514 -0.33667132 -0.12229059 0.018781837 -0.1320383
-0.07767448 0.14283825 -0.094291486 0.14618568 -0.0034820684 -0.13995329 0.030195089 -0.11006028
0.25151846 0.06644413 0.26937956 0.46238157 -0.026771795 -0.14733103 -0.18920846 0.15766943
-0.40851802 0.025688421 -0.15130748 0.18591996 -0.046543762 0.22588342 -0.016033133 -0.24319883
0.045217987 -0.20867074 0.08313425 -0.2310016 -0.0631739 -0.054555945 -0.012459359 0.29812077
0.12170605 -0.03336818 -0.06255832 0.10408504 0.3746254 -0.072485745 0.053154506 0.3136637
-0.3291338 0.1617387 -0.49281564 -0.13842899 0.11554603 0.2807564 -0.31199703 0.17267658
-0.047646448 0.21545477 0.022581717 -0.1279328 -0.07506952 0.012349498 -0.039454754 0.2582981

stem.0.bias f4 [32]
00000000: 868d 75bb 6060 1b3b 8959 ab3b 2588 83bb
00000010: 4d67 84bb 5a12 96bb 20bc 24bb 68f1 2abc
00000020: c6a1 98b9 6317 0ebb c907 2fbb 39b1 ccbb
00000030: 19b3 14bc 01d6 bebb 7d06 58ba 3b53 71bb
00000040: d283 d73a 0225 36bb 3e0d b6bb bd24 8fbb
00000050: 1ddf a03b 0126 d4bb d0b7 02bb a6ca 043b
00000060: ffe1 fbba 48ce d13b 160b afba 3739 a8bb
00000070: 216a 8dbb 3196 27bb 6160 f6ba 6fe0 c5bb
-0.0037468388 0.0023708567 0.0052291793 -0.0040140324 -0.0040406347 -0.0045798244 -0.0025136545 -0.010433532
-0.0002911223 -0.002168142 -0.0026707521 -0.0062467125 -0.009075903 -0.005823851 -0.0008240713 -0.003682329
0.0016442484 -0.0027793054 -0.005555778 -0.004368393 0.0049094097 -0.006474257 -0.0019945987 0.002026239
-0.0019217132 0.0064027645 -0.0013354744 -0.0051337737 -0.00431563 -0.0025571699 -0.0018797034 -0.0060387175

tower.0.conv1.weight f4 [32, 32, 3, 3]
00000000: 5231 b8bc ac37 24be 7429 f53c df2e 8abc
00000010: dfd1 d3bc fe3d e93d 2187 8b3d 945f 52bd
00000020: 155e efbd da51 2abd 9930 34be caef f7bc
00000030: c8b4 99bd 87ba 4bbe 8646 55bb f993 a93b
00000040: 48cd 013d 523b b7bb 47c1 ec3d ea2b 1dbd
00000050: 9754 14bd 3b1b 26be 33d3 f03d 0802 193e
00000060: 329f cabc 0ce0 893d 3da7 62bd 9566 b53d
00000070: 7d8e c3bc 87ff 7d3c ed64 933d 1829 39bd
00000080: 4f2a 88bc 9f2e ddbb 00f2 55bd af7c d4bc
00000090: d540 413e bf06 383d 11b8 76ba 4a9f 963d
000000a0: 47ed f43d ad36 1bbc b527 963c fd53 4dbd
000000b0: ec51 8a3d 6153 5e3e b655 34bd 56ec 16be
000000c0: 9fd5 933d 267d 99bd c20b 7abd 5de0 26be
000000d0: 3c29 463b bdbc f1bd c298 143c 9227 27be
000000e0: 4369 c3bd 01ac 313e 07fb 933d 4b83 22ba
000000f0: 0817 213c 03c6 3c3d 99b4 8fbc 756b 5fbd
00000100: 86c8 bf3c 35f0 973d db23 153d 335a 893d
00000110: 1341 debd 6b85 c53d 93c7 2ebb 475a 96bd
00000120: c794 1ebd 6b0a 7dba 9b6f 3d3d b6bc 92bd
00000130: 822d 0b3d c1c7 3bbd cbe4 3fbe ef5b d43d
00000140: d6ab 26be 3b27 253e 46d4 a8bc 055c 333d
00000150: dbee 393e c581 223d d84f 9d3d 37cc 063e
00000160: cdcf 233e bc96 14be 4c4a b73d 6ac2 4ebc
00000170: e2e3 153e 599b ac3c c850 af3d a100 283e
00000180: 2bf0 643d 3b96 183e 5da5 92bc d685 9d3b
00000190: e7ec a7b9 f38c dfbd b468 aabd a969 b4bb
000001a0: b400 113e 43db b13d 556b 08bd 5a67 20bd
000001b0: 0095 88bd a812 3a3d 4107 363d 2515 24be
000001c0: e28b fd3d 1d0e a7bd 21bc 69bc fb3a 813c
000001d0: 3b01 993c 573d 803d d463 493d 01d6 0fbd
000001e0: a3b9 333d 0404 7a39 850e 9f3d 4444 afbc
000001f0: eb6b 113d eade 8f3d 0083 adbd 1228 12bd
00000200: 5132 8abd 63a4 1bbe 3322 eb3d deb6 ee3c
00000210: 0806 5bbd b0ad 783d 5352 babb ab64 93bb
00000220: 2226 993c 220a c83c 7be8 2b3d e72f 953d
00000230: 3046 eb3c 33cc 833d a197 8abc 3689 b53c
00000240: 54ed b1bc cd09 8cbd 2323 05bd 6145 a53c
00000250: 948e a1bd 681f e13c 0724 e73c 8032 253e
00000260: 0283 743d d2ff 263d 9b20 253d cdac 94bd
00000270: 9446 edbb dc17 613c 2813 ff3c 8b1d 333d
00000280: ca8d a2bc aea0 72bd 475c 913d c64e 5c3d
00000290: 729c bd3d 886d 81bc df34 febc 4224 b43d
000002a0: d6b3 39bd 2d95 a93c 1382 803d 02d1 bb3c
000002b0: cf8e b7bd 44a2 923c 543a 26bd a3c6 f93c
000002c0: 3d40 453d c9b6 29be 4494 393e e3b6 88bd
000002d0: 8881 b73d 629c 953d 07b1 27be adb4 f5bd
000002e0: 2e18 e7bd c5e5 ffbc 902e 5c3d 96a3 cd3c
000002f0: 85fb 1b3d a67d 02be 746d 5e3c 71cb fd3b
00000300: 27a0 23be 5653 fa3c b9dd 5d3d f57b e23d
00000310: c68b 17bd 06fd 38be 3d31 8b3a bf86 72bd
00000320: a2fc 1c3e 7052 3fbd b345 48be b976 a23c
00000330: 5404 0f3d 2112 9bbd f441 323d dbe8 a8bd
00000340: beff 15be 2bd2 973c 7a15 98bd 7f1f 5f3d
00000350: af7c 0a3e de3c 013e 6ea9 adbd 893c 3abd
00000360: 60ee babd 5a2e 113c 61bb e73c f390 cd3c
00000370: e331 29be e2c9 dcbc 7da7 9cbd d828 52bb
00000380: c48b c4bd 6047 223b 0015 2e3c 1a43 8dbd
00000390: e326 173e 532c c53c 3dae d6bd b7bb 88bd
000003a0: a7ad 59bd 47ed 87bd 0452 333e d8e2 fd3c
000003b0: 9315 81bd 29da 143e eda6 223c 2b08 7dbd
000003c0: ffb8 793c 14af b93d 9fc2 383d cf2b 113d
000003d0: 4995 4abd d49b 4a3d 647e 9abd cf3a 2c3d
000003e0: 589a a33d b6b2 eabd 7d95 4dbd abc1 6d3c
000003f0: ee6c f93c f483 b73c 59d3 87bc cbb6 9a3d
-0.022484455 -0.16036862 0.029926993 -0.016868053 -0.02585691 0.11388777 0.06812883 -0.05136068
-0.116878666 -0.041581966 -0.17596664 -0.030265708 -0.075051844 -0.19895373 -0.0032543256 0.0051751104
0.031689912 -0.0055917883 0.11560302 -0.038371958 -0.036213484 -0.16221325 0.11759033 0.14942181
-0.024734113 0.06732187 -0.055335272 0.088574566 -0.023871655 0.015502817 0.071969844 -0.045205206
-0.016621737 -0.0067499424 -0.052232742 -0.02593836 0.18872388 0.04492831 -0.00094115833 0.07354601
0.119593196 -0.009473485 0.01832948 -0.050128926 0.067539066 0.21711494 -0.044027053 -0.14738593
0.07218479 -0.07494573 -0.06104637 -0.16296525 0.003023698 -0.11803577 0.009069623 -0.16323689
-0.095415615 0.1735077 0.07225614 -0.0006199374 0.009832151 0.046087276 -0.01754217 -0.05454584
0.023411047 0.07418863 0.036411148 0.06706657 -0.10852256 0.09644588 -0.0026669248 -0.07341438
-0.038716104 -0.00096527365 0.046249013 -0.071649 0.033978947 -0.045844797 -0.18739621 0.103690974
-0.16276488 0.16128246 -0.020609032 0.04378893 0.18157522 0.03967454 0.076812446 0.1316384
0.15997238 -0.14510626 0.08949718 -0.012619594 0.14637712 0.02107017 0.0856033 0.1640649
0.055893105 0.14901058 -0.017901117 0.0048072143 -0.00032029228 -0.10915556 -0.08320752 -0.0055057597
0.14160424 0.08684399 -0.033305485 -0.039161064 -0.066690445 0.04542795 0.04444051 -0.16023691
0.12380196 -0.08156989 -0.014266045 0.015775194 0.018677345 0.062617 0.04916747 -0.0351162
0.04387821 0.00023843354 0.07766441 -0.021394856 0.03550331 0.07024939 -0.08472252 -0.035682745
-0.06747878 -0.15199427 0.11481132 0.029139932 -0.05347255 0.060712516 -0.0056860833 -0.0044980845
0.018694941 0.024418894 0.041969758 0.07284527 0.028719991 0.06435432 -0.016918005 0.022160154
-0.021719612 -0.06837807 -0.032504212 0.020174684 -0.07888523 0.027480796 0.028215421 0.16132545
0.05969525 0.040771313 0.040314298 -0.07259522 -0.0072410796 0.013738599 0.031137064 0.043729346
-0.019843 -0.059235267 0.07097679 0.05378606 0.09258355 -0.015799299 -0.03103107 0.08795978
-0.04533752 0.020701015 0.0627481 0.022926811 -0.089627855 0.01789964 -0.04058297 0.030490225
0.048156966 -0.16573633 0.18122965 -0.06675508 0.08960253 0.07305218 -0.16376124 -0.11997352
-0.11283909 -0.031237492 0.053755343 0.025102418 0.038081665 -0.12743244 0.0135759 0.0077451994
-0.15979062 0.030557316 0.05416653 0.11058799 -0.036998533 -0.18065271 0.0010619533 -0.059210535
0.15330747 -0.046709478 -0.19557838 0.019832002 0.034916237 -0.07571817 0.04351993 -0.08247539
-0.14648339 0.018532833 -0.07425971 0.054473396 0.13524126 0.12620875 -0.08479582 -0.045467887
-0.09127498 0.008861149 0.028287591 0.025093531 -0.16522937 -0.026951734 -0.07649133 -0.0032067802
-0.09596971 0.002476178 0.010625124 -0.06897564 0.14760928 0.024068987 -0.10482452 -0.06676429
-0.053144123 -0.06637054 0.17511755 0.030991957 -0.06302943 0.14536346 0.0099274935 -0.061775368
0.01524186 0.090665966 0.04510748 0.03544217 -0.049458776 0.049465016 -0.07543638 0.04204827
0.07988423 -0.11459868 -0.05019139 0.014511506 0.03044745 0.022401787 -0.01658027 0.07554396

tower.0.conv1.bias f4 [32]
00000000: de9d 63bb e373 4abb 2099 033b deb7 1b3b
00000010: b9ea 2f3a 0467 f33b 2da0 e4ba a1a2 b5bb
00000020: b5b2 e5ba ad72 fe3a bcb1 9cbb 6e7b eb3b
00000030: b09f b83b 5fe6 1e3a 2504 babb 4925 de3a
00000040: 9c26 0abc f63f 663b ae48 c23b 3f08 72bb
00000050: 9c7d 413b c310 7c3a 9f8e 10bb 0a0d 9cbb
00000060: 13f0 f2ba 26d7 88ba b712 e9ba 2972 423b
00000070: d003 a83b 7c23 9cbb 5e4d aa3b f23f 753b
-0.0034731547 -0.0030891828 0.0020080283 0.0023760716 0.00067106966 0.007428052 -0.0017442756 -0.0055430685
-0.0017524572 0.0019412838 -0.00478193 0.007186345 0.0056342706 0.00060615496 -0.0056767636 0.0016948368
-0.008432057 0.0035133339 0.0059290743 -0.0036931185 0.0029524332 0.0009615535 -0.0022057665 -0.0047622966
-0.0018534682 -0.0010440096 -0.0017782067 0.0029670096 0.0051274076 -0.0047649723 0.005197211 0.0037422148

tower.0.conv2.weight f4 [32, 32, 3, 3]
00000000: b5b8 da3d 0be8 2cbd 0cfe 6e3d bc34 b93d
00000010: f6d3 1ebe c5b8 a6bd b15a 653d fbda 3d3e
00000020: 3f2f 7e3d c00d 07bd 9381 833d f151 893d
00000030: 4ee5 a7bc 0da3 133d 1aeb c2bc 27ea e5bd
00000040: 0652 5fbc 8023 aebc 3ae2 6e3d a488 613d
00000050: b979 393d 21bf 523e 8d94 a2bc 4904 d33d
00000060: 7734 02be 20ea 983d 2d31 57bc ba0b 243d
00000070: 01cf e3bc 1d7d 5f3d 69a6 4d3e 1b5c 933c
00000080: 9231 5e3d 659a 433c d6a4 78bc 7cec 18be
00000090: 51d0 a3bc ad9f 113e 1705 4f3e 943f 813b
000000a0: dd63 383c ba09 a43d fde3 193c 4c6b 59bd
000000b0: 594e 08bd 2ca4 a3bd db95 13bc c5be cdbd
000000c0: 950f 18be eb48 273e b6ef 79bd db98 f7bd
000000d0: 2c7b 243e 2b6d 29be 9ade 6c3a 1fba c4bd
000000e0: 6c49 febd 6cf0 d73b 3dd5 39bc 9439 c13c
000000f0: 527d 8ebd b2a7 0bbd 2019 b73c f9ce 3b3d
00000100: ee09 1f3e 81a8 b9bd 7312 0abe 867d 8dbd
00000110: 272e 113e 94cb b9bc 6154 9d3d eda3 a5bb
00000120: 4934 8dbc c28c 523d a900 09be 2097 93bc
00000130: 1248 913d 563c e13b a37d fabd 12a1 a73d
00000140: 38f4 983d 294e ebbc fe0e 19be 07a1 643d
00000150: b717 db3c 6816 393e ed34 48bd 20af 8cbd
00000160: 1c11 883c 575a f03d 1fd1 adbd b715 943d
00000170: 70db 8e3d 1df4 c23c 7470 833c 49a1 adbd
00000180: 12fe 653d 4cc7 933d 3c54 b4bc a076 63bd
00000190: bf1d aabd e0d9 4a3d 696c 443d 17e3 a33d
000001a0: 30b2 c0bd a719 883d 0db0 edbd e404 9fbd
000001b0: 1440 07bd 2404 d73c 3dea 053e f993 1bbe
000001c0: 8260 87bd 6e98 aabd ed01 903d 7d15 9d3d
000001d0: 5c5b 77bd e7e9 a2bd ee55 da3c d32f edbb
000001e0: ba5a 0f3d 4cb6 2e3e eb3d 23bc 175a 2abd
000001f0: 4632 28bd 0ca1 35bd c8a7 fd3c 2b00 0ebd
00000200: 44ce 63bd 6116 8a3d 26d1 b9bc a63c f9bd
00000210: d492 29be 63cb 9e3d 72b4 cf3d 7369 ef3d
00000220: 09f7 3e3e 1853 a03d 99a4 6bbd c674 dabd
00000230: f11f 57bd 711e 263e 80fa 8bbd 1787 79bd
00000240: 666d 82bd 4bb6 13ba 7344 803c ddc8 3bbe
00000250: f688 473d f739 82bd f1f8 30be f688 e1bd
00000260: e0df 86bd 98a3 5cbd 9284 873d c942 72be
00000270: d1c7 58bd 7af8 1ebc bb8d e4bb bcc8 38bc
00000280: 9add 50bc 71f4 193e 6c83 1e3e ec24 723b
00000290: d6bf be3d c236 1a3e 541d 14be d0f0 883d
000002a0: 5738 e0bc 0ac3 fc3c 0fe7 a53d 58c8 32bd
000002b0: 3736 21bd 97f7 e8bb 24e5 8e3d 635b 203d
000002c0: 154c 3bbd 4c53 b63d 2215 c73d f66a 80bd
000002d0: 7d2a 0cbc 667f 6f3d 96fc c3ba 8d78 383c
000002e0: 4a2f 433b ded2 8ebd 4c7f 92bd 06f4 32bd
000002f0: 13cf e63d 3582 80bd 841d 18bd d9c0 42bd
00000300: 9e47 edbc e394 89bd 950e b33d d740 2f3e
00000310: b426 7c3e 2da7 a5bc f111 663d 4e78 2dbe
00000320: ede0 233d 79b6 3dbe 32ef a53d 547e d63d
00000330: fda1 0cbd bd9f 3a3d 43bf a63d 10de 4e3d
00000340: c9c0 1dbe 092a 843b 019e 3bbe f637 f53c
00000350: bfb4 b4bd e609 883d 64bb b9bd 96bd 9cbc
00000360: cc60 1cbe 5c82 bb3d 34e1 04bd 116f b53d
00000370: 573c a93c 7736 373d a4ab 87bd 7aca 163d
00000380: ee57 e43d 489b 9cbd 1e80 70bc b5b4 713a
00000390: 0652 58bd 54d2 89be 9f91 c73d fe6f 37bc
000003a0: 8338 19be a911 953d 1aed 5abd c394 31bd
000003b0: 321c 34bd 1bde 7c3d 3af5 fcbc bdb7 16bb
000003c0: 25ec 2fbd 6148 93bd 549c 87bd 230a 033d
000003d0: 6bb2 013c ec41 f1bd 2f4b 7cbb 270f b6bd
000003e0: 9fdb 0abe bf60 0e3c 6bd9 c9bd ebf5 e8bb
000003f0: 3c0a cfbc 1d6a 813d 65c2 5cbd aaa4 06bd
0.10679761 -0.04221348 0.058347747 0.090432614 -0.15510544 -0.08140711 0.055994693 0.18540566
0.062056776 -0.032972097 0.06421199 0.06705082 -0.020495083 0.03604417 -0.023793746 -0.11226302
-0.013630396 -0.021257162 0.058321215 0.05506195 0.0452821 0.20580722 -0.019846225 0.10303552
-0.12715326 0.07466531 -0.013134283 0.040050246 -0.027808668 0.054562677 0.20083012 0.017988255
0.054246493 0.011938666 -0.015176019 -0.14933962 -0.019996794 0.14221068 0.20216785 0.0039443467
0.011254278 0.08009668 0.009392736 -0.053080842 -0.033277843 -0.07990298 -0.009007896 -0.10046152
-0.14849694 0.1633641 -0.06101962 -0.12089702 0.16062611 -0.1654555 0.0009035856 -0.09605812
-0.12416348 0.00658994 -0.011342344 0.023587026 -0.06957497 -0.034095474 0.022350848 0.04585168
0.15531132 -0.09065343 -0.134836 -0.06908707 0.14177762 -0.022680081 0.076821096 -0.005054942
-0.017236846 0.05140377 -0.13379158 -0.018016398 0.070938244 0.0068736477 -0.122309946 0.081850186
0.07468456 -0.028723793 -0.14947125 0.05581763 0.026744707 0.18074954 -0.0488786 -0.0686934
0.01660972 0.11735981 -0.08487152 0.07230704 0.06975448 0.023798043 0.016044833 -0.08478028
0.056150503 0.07215747 -0.022012822 -0.05553305 -0.08306455 0.049524188 0.04795495 0.08002298
-0.094089866 0.06645518 -0.11605845 -0.07764605 -0.033020094 0.026247092 0.13077636 -0.15193166
-0.06610204 -0.08329855 0.07031617 0.07670114 -0.06038986 -0.079547696 0.026652303 -0.007238367
0.034998633 0.17061728 -0.009963493 -0.041589823 -0.04106357 -0.04434304 0.030963793 -0.03466813
-0.055616632 0.0674255 -0.022682738 -0.12169771 -0.16559917 0.07753637 0.10141839 0.11690035
0.18648924 0.07828349 -0.05753002 -0.10666804 -0.052520696 0.1622255 -0.068348885 -0.060919847
-0.06368522 -0.0005634769 0.01565764 -0.18338342 0.0487146 -0.06358712 -0.17282464 -0.11012451
-0.065856695 -0.053866953 0.06617083 -0.23658289 -0.052924935 -0.009702796 -0.0069749034 -0.011278328
-0.012748146 0.15034653 0.15479821 0.0036948277 0.093139336 0.15059951 -0.14464313 0.06686556
-0.027370615 0.03085472 0.081007116 -0.043648094 -0.039358344 -0.007109593 0.06977299 0.039149653
-0.045726854 0.08902606 0.09720828 -0.06270401 -0.008555052 0.058471106 -0.0014952596 0.01125921
0.0029782825 -0.069738135 -0.07153186 -0.04368975 0.11269965 -0.06274835 -0.037137523 -0.047547195
-0.028964814 -0.06717851 0.08743016 0.17114578 0.24624139 -0.020221317 0.056169454 -0.16940424
0.040009428 -0.18526639 0.081022635 0.10473314 -0.03433417 0.045562495 0.08141949 0.050504744
-0.15405573 0.0040333313 -0.18321992 0.02993391 -0.08823537 0.06642513 -0.09068945 -0.01913337
-0.152713 0.091557235 -0.032441333 0.08859075 0.020658655 0.044729676 -0.06624535 0.03681419
0.11149584 -0.07646805 -0.014678983 0.0009220348 -0.0528126 -0.2691828 0.09744572 -0.011196135
-0.14962964 0.07278759 -0.053448774 -0.04335476 -0.0439722 0.061735254 -0.030878652 -0.00229977
-0.042949814 -0.071915396 -0.06621614 0.03199209 0.007916073 -0.11780152 -0.0038496961 -0.08889609
-0.13560341 0.008690058 -0.09855922 -0.007109394 -0.025273435 0.063190676 -0.053896327 -0.03287188

tower.0.conv2.bias f4 [32]
00000000: bd77 ad3a c9f0 afb8 0be8 c73b ba61 6fbb
00000010: aeb3 86ba bae1 35bb dc82 41bb eec8 11bc
00000020: a8c0 d6ba 168d 963a 2c0b bbbb d459 acbb
00000030: 40fb 95bb 9e1e 43bb 4d0e 05ba eb51 00bb
00000040: 80f0 80bb 9808 80bb 7141 cfbb 1bb3 a6bb
00000050: a366 923b c10c 19bc fd58 573a 160e 21ba
00000060: a04a e73a a495 543b 90d7 a5bb f34d aeba
00000070: 518c 2c39 4c1f acba 999d 9e3b 3fd5 85bb
0.0013234537 -8.3895e-05 0.0061006597 -0.0036526755 -0.0010276937 -0.0027752952 -0.002952746 -0.008898003
-0.001638432 0.0011486139 -0.005708119 -0.005259732 -0.0045770705 -0.0029772888 -0.00050756783 -0.0019580077
-0.00393492 -0.0039072745 -0.00632494 -0.005087269 0.0044678017 -0.00934142 0.00082148594 -0.00061437616
0.0017646141 0.0032437826 -0.0050610974 -0.0013298377 0.0001645547 -0.0013131886 0.0048405644 -0.004084259

tower.1.conv1.weight f4 [32, 32, 3, 3]
00000000: ebc3 51bc 29ca 263e a374 1d3c 0a38 9b3d
00000010: 0904 01be c1ce 473d 9451 99bd 3222 5cbd
00000020: ec6d 893a de4e 3e3d 5b20 88bd 5d29 2a3e
00000030: fc41 92bd 823a cdbd 1b07 633d a9b7 d7bd
00000040: f671 953d 66d3 30bc 674e 6a3c 1e00 5c3d
00000050: b7bf 9d3d ba97 c43d 7d6a a1bc c550 32ba
00000060: 1a50 97bd 968d 193c 684e 823d 5211 22bb
00000070: 1208 68be efb6 e93d ceba a1bd 0f1c e33c
00000080: bba7 7cbd 1fd1 e9bd 2692 c03c 2143 75bd
00000090: d4c4 ebbd bb9e 7b3d 3a0e 9e3d 20db acbc
000000a0: e546 063c 3915 813d 4914 dc3d e96d fc3c
000000b0: ae6e 083d b0ad 2cbc e1f5 43be e78e 1a3d
000000c0: 0286 143e dcd0 acbd d1c9 09bc 13cf 97bd
000000d0: fefa bdbc 2198 893d 02c2 45bc bb6f 423e
000000e0: def3 f1bc 7428 9cbd b6f2 80bd ca8a 123c
000000f0: 4ac3 bc3d 4dc6 c1bd f8ec 84bd fdf1 b83d
00000100: dc21 acbd 5cd6 0f3e 2003 acbd a896 8dbd
00000110: ebda ba3d d7a7 683d 91b6 233d 7435 2e3d
00000120: e0be e43b 7559 32be 7b88 75bc eead de3c
00000130: 1f65 61bd c8ee 7abc 2aec b63c 54a6 8a3d
00000140: 0bdc 64bd 5f4c 493d 1040 d9bc 7879 9a3d
00000150: 9df6 5bbd b82a 32bd f8a1 23bd 7387 c13d
00000160: 1075 94bc 4299 bfbd fb80 f6bd d7ee 36bd
00000170: 79b6 b83d 6f74 b03d 50ee 963d 7be1 073d
00000180: 73e3 463d 91e8 aa3d 48ec 0a3e dfd3 4d3d
00000190: b6ea 0a3e d30b acbc aebe c2bb b514 783d
000001a0: 5253 b03d 3ce9 993b e6ce 713d 2525 bc3d
000001b0: 6f06 7fbd 8540 9ebd ab0b c33c 4012 d23c
000001c0: 32fe d1ba d2fd 31bc 9840 c6bb ff84 80bc
000001d0: 5e78 533d 34c9 f8bd 68ed 5abd ec22 ffbd
000001e0: f185 0e3e e245 2c3e 3fe4 84be f6c7 60bd
000001f0: 703b 70bd b62d 2dbd fffe 5dbb 1d0f c7bc
00000200: 0016 b0bd 77f4 e2bd 72f6 23bd 5753 fb3c
00000210: 4429 8abd 772b 603d 026f 8a3b d3a6 993c
00000220: 115b f6bc 3945 453d 3703 39be 7a5e 1abd
00000230: 9ae3 cbbd 1138 053e ebb6 6cbd 6427 a6bc
00000240: 4cfe 0cbe 6314 f13c fd57 3e3d 79e0 13bd
00000250: f5f4 57be c075 c0bc 96cc d93d 5d9e 2fbd
00000260: bead 87bd fdaf 8fbd 3fe0 563c bcb4 8fbb
00000270: ebb2 8e3d c8ab ae3c 190a 243d 6264 8ebd
00000280: e2e5 793d 591f 94bd 5b86 d53d 695f 133e
00000290: d9be 1c3e fcc7 3bbc 51e9 f9bd b1af 883d
000002a0: 179c 34bd a5cf 523d 078d 363d e0e5 96bd
000002b0: 0fe6 c9bd 9c43 02be 87d9 44bd 0b08 29bd
000002c0: 582e 66bc 5962 c8bc d58e e9bd ad65 f5bd
000002d0: 0baa 8dbd 3ffe 143e c597 e3bd e2f0 19bc
000002e0: 17d3 993d 6c05 013e b804 163d d1e6 9fbc
000002f0: 28f8 383d 7615 4dbd e9b5 923c 18e7 d9bd
00000300: 1e1e 003d 4a09 db3c feee debd 1eb4 5d3d
00000310: 5966 7ebd 889e a7bc f063 90bc f66e f2bd
00000320: 898a 5bbd d3ec b9bd 3428 e33c 1cdf 2e3e
00000330: 03fd 97bd 5f51 21be 7e1d afbd dae3 55bd
00000340: 0058 84bd 7761 2b3d 18c1 cc3d ded2 c53d
00000350: 7cfc 763d c233 653d c634 0d3e ff21 3a3d
00000360: 241a 0f3c a1d9 04bd 8d7e fabc c4e4 46be
00000370: 1c99 5ebd a283 cabd 7168 73ba 952d e13c
00000380: a3ac 5fbb fdbd 0cbd 0b7f 143d 7c1f 1f3d
00000390: 3705 6a3c f1b8 073e cb3a 80bc ba1e 09bd
000003a0: a7f5 6fbc 6951 9a3c 048a ccbc 6063 d43a
000003b0: 49dd bb3c f162 0abd 5d17 21bd 1007 5cbd
000003c0: 9567 8d3e 62ce d63c 1389 2e3c 6956 a63d
000003d0: 3f41 213d 89d4 753c 1732 aa3d 574b edbc
000003e0: a2e4 40bd 955b 203b de30 0abe bd3a 09be
000003f0: 5117 1e3d 8d46 b9ba bee9 df3c a3cf bbbd
-0.012803058 0.16288055 0.009610328 0.07579048 -0.12599196 0.04878116 -0.07486263 -0.05374355
0.001048503 0.046461932 -0.06646796 0.16617341 -0.07141492 -0.10020925 0.0554267 -0.10533077
0.07297127 -0.010792589 0.014300919 0.05371105 0.07702582 0.09599252 -0.019704098 -0.0006802197
-0.07388325 0.009372136 0.06362611 -0.0024729562 -0.22659329 0.11411845 -0.07896958 0.02772334
-0.061683398 -0.1141684 0.023507189 -0.059878472 -0.11512151 0.061430674 0.07717557 -0.02110058
0.0081956135 0.06302876 0.107460566 0.030814128 0.033308677 -0.010539457 -0.19136764 0.03773394
0.14504245 -0.08438274 -0.008409933 -0.07412543 -0.023190971 0.067184694 -0.012070181 0.18987934
-0.02953523 -0.07624903 -0.062962934 0.008944223 0.09216936 -0.09461651 -0.06490511 0.090305306
-0.08404896 0.14046615 -0.083990335 -0.06913501 0.091237865 0.05680069 0.03996903 0.042531446
0.006980762 -0.17416938 -0.014986153 0.027182546 -0.055028077 -0.015315719 0.022329409 0.06770006
-0.05587391 0.0491451 -0.026519805 0.075426996 -0.053701986 -0.04349777 -0.039949387 0.09449663
-0.018122226 -0.093554035 -0.1203632 -0.04466137 0.09019179 0.08615958 0.07369673 0.03317402
0.048556756 0.0834514 0.13566697 0.050250884 0.13566098 -0.021001732 -0.005943141 0.060566623
0.08609642 0.004696993 0.059035204 0.09186772 -0.062261995 -0.0772715 0.023809275 0.025643468
-0.0016021191 -0.010863738 -0.0060501806 -0.015688417 0.051628463 -0.121477515 -0.053449064 -0.12457833
0.13918282 0.16823533 -0.25955388 -0.054878198 -0.058650434 -0.04227992 -0.0033873913 -0.024299199
-0.08597946 -0.11081784 -0.04002995 0.030679388 -0.06746152 0.05472895 0.004224659 0.018756306
-0.03007272 0.04816172 -0.18067633 -0.037687756 -0.09955521 0.13009669 -0.05779163 -0.020282455
-0.13768882 0.029428666 0.04647063 -0.036102746 -0.21089537 -0.023493648 0.10634725 -0.042875636
-0.066249356 -0.07015989 0.013114988 -0.004385559 0.0696772 0.021322146 0.040048692 -0.0695274
0.06101025 -0.072325416 0.10426017 0.14391865 0.15307178 -0.011461254 -0.12202705 0.066741355
-0.04409417 0.051467557 0.044568088 -0.07368064 -0.09858333 -0.12721103 -0.048059013 -0.041267436
-0.014049135 -0.024460958 -0.11404196 -0.11982284 -0.06917199 0.14550112 -0.11112932 -0.00939581
0.07510965 0.12599725 0.036625594 -0.019519242 0.045158535 -0.050069295 0.017909007 -0.10639781
0.031278722 0.026737828 -0.10885428 0.05412685 -0.062109325 -0.020461336 -0.017625779 -0.1183757
-0.053598914 -0.09078374 0.027729131 0.17077297 -0.07421305 -0.15753697 -0.08550547 -0.05221925
-0.06462097 0.041840997 0.09997767 0.0965936 0.06029938 0.055957563 0.13789663 0.045442577
0.00873426 -0.03243411 -0.030577922 -0.19423205 -0.054345235 -0.09888388 -0.00092852773 0.027487556
-0.003413 -0.034360874 0.03625397 0.038848385 0.01428347 0.13254143 -0.015653035 -0.03347657
-0.01464597 0.018837648 -0.024968155 0.0016203932 0.022932665 -0.033785764 -0.03932892 -0.053717673
0.2761809 0.026221458 0.010652798 0.0812195 0.039368864 0.015004286 0.08310335 -0.028966589
-0.04709304 0.002446865 -0.13495204 -0.13401313 0.038596455 -0.0014135406 0.027333137 -0.09170463

tower.1.conv1.bias f4 [32]
00000000: 2ad4 113b baf7 893b b30d 28bb 1ae3 29bb
00000010: 7a47 843a 13e1 423a b5f1 a4ba ebf6 15ba
00000020: 65a3 1abb b251 57bb 7148 9cbb 1892 9e3a
00000030: a913 663b 933f 9eb9 8e08 aebb 865b a43b
00000040: 2830 5fbb d4b4 243b 733a 1b3b 39c8 13bb
00000050: 5d67 9a3a c5ed 07ba 3bcf aebb 9228 003a
00000060: 6e9b a138 729b e73a bda5 ceba 065a 76bb
00000070: a015 963a 0f83 71bb edec 2f3a 88dd 48bb
0.0022251704 0.0042104395 -0.002564293 -0.0025922717 0.0010092102 0.00074340514 -0.0012584241 -0.00057206926
-0.0023595926 -0.003285509 -0.004769378 0.0012097983 0.0035106933 -0.00030183475 -0.0053110784 0.0050157933
-0.0034055803 0.0025132196 0.0023685961 -0.0022549762 0.0011780072 -0.0005185272 -0.0053347624 0.0004888858
7.706029e-05 0.0017670228 -0.0015765947 -0.003759028 0.0011450537 -0.0036851799 0.0006711025 -0.003064962

tower.1.conv2.weight f4 [32, 32, 3, 3]
00000000: 5c9d 653e 8df0 67bd 5a31 de3d 5c68 e33c
00000010: 43a2 bcbd 6792 3cbd 0090 42bd daba f73d
00000020: d305 2e3e e4fb bebc 32b2 633d 3118 a6bd
00000030: 6435 0fbe 7caf 11bd 9639 dd3d 6255 583d
00000040: 4651 8b3d d709 e2bd 716d 4cbd 47e6 11be
00000050: e82f 533d ed8c d6bc f3b7 c23d b4c9 5b3d
00000060: db65 85bd f4d8 5b3e aa89 1abe 75af 94be
00000070: 31e8 9d3d 31a4 173e f67d b53d 92de 20be
00000080: 31bc 013d 3a24 1cbd f2ac b7bd 1226 54bc
00000090: 2e80 a33c d862 873d 5366 173c d996 26be
000000a0: 02d4 27bd 1618 103d a9ac 8fbd cda0 a73d
000000b0: b65e 42bd 9eae c3bc de7f 263b e7c2 9cbd
000000c0: 05c1 fabd abca 9c3c 56ea d1bd 2edf 603c
000000d0: e33b 533d 3780 9d3d 5024 29bd dcec bd3d
000000e0: 7bfd 2c3b 3290 d0bd b452 a2bd a8fc 18be
000000f0: 0807 ffbd aa70 0fbd 1b39 c4bd f1eb 4bbd
00000100: bd6f cebc 2d8d 933c 278e e63d d25b a83d
00000110: c856 0c3e b2b7 403c 786c e9bd 3e5f 7fbc
00000120: 92aa 24bd c711 29be 38fd 89bd d407 8e3d
00000130: 4b49 44be f476 b93d e73b 153e 8c19 d73c
00000140: 5852 e1bd 3b1e ba3d ea9e 39bd 40ea 1a3d
00000150: 914f cabb 5e0f 57bd 4643 9f3d 9c2f 4bbd
00000160: 1c84 c33d 4d35 cf3d 97a0 1f3d 44e0 5f3d
00000170: 31e9 903d aa8d cabd c482 0fbb 7c55 e8bd
00000180: fbdd 063d 17b1 283e 8f52 93bd 0dd9 0cbc
00000190: e6de d03c e724 b23d b505 51bd 3485 9ebd
000001a0: c584 b03b 959a 9cbd 2680 4c3d 08e1 163d
000001b0: 0bbf 1dbd 583a bcbd 42a1 29be fee6 823d
000001c0: 2682 003d 12cd 94bc bba3 24bc b037 ea3c
000001d0: 9a86 c53c 9b7f 8f3c 294d 25bd 8099 c2bd
000001e0: 2647 bb3c bd3b c43d bd54 e43d 9078 c83d
000001f0: 51cd 563d 47e3 a6bd 444b 30bb 4e3f eabd
00000200: 9d8c 673b bd5d cdbd 0d1f 943d 995b e7bd
00000210: b5f4 463d d1e3 0ebe d501 1c3b d6e7 623d
00000220: 6008 3d3c 9974 913d 2f2d 043c d46a b3bd
00000230: 0987 19bd 610d 803d 3d6b 90bc fdcf 303c
00000240: 14af b0bd 205f 273e 6ee9 cdbb bdb3 313d
00000250: 62f0 3f3d 1495 18be d55d 2abe c5f8 023e
00000260: 758c d8bc ca4e 4fbc 2696 06bd 4516 f5bc
00000270: 6bb4 753d ec63 1f3d 3716 eabc 8068 afbd
00000280: 8777 b93d 5acf 993d 3858 d73c 0b12 f03d
00000290: a285 2a3d a66e e83c a7e2 0abd 57bc 75bd
000002a0: f47c a23c b139 19bd 6994 4a3e 4f51 e8bd
000002b0: 74f5 933c 6373 ec3c 9099 d03d 763f e63b
000002c0: ea99 37bc 12e8 c9bd 2751 c4bc 2bdd 763c
000002d0: c70d 36bd da4f 463b f4e8 6bbd 021a 98bd
000002e0: 2495 a6bd c488 dab9 d611 70bd 3441 d0bb
000002f0: 0f74 ec3c 2bf0 cd3d 7e92 f33c bdcb 20be
00000300: bcb7 a1bc 5e85 1bbd 204f f03d 8db8 88bd
00000310: 8808 d73c 83ba f33b 6a19 79bc 16ab 1abd
00000320: f027 6bbd dbcb 01be edaa 0c3e 26a8 f53c
00000330: 815c 7b3b 6396 1bbc a9c8 ea3c 850c f0bd
00000340: fcd8 fabb 8cf7 e7bd 30ca d5bb ea55 c53d
00000350: 5aa1 fd3d eba0 9e3d 8cf5 f9bd 3ffc ab3d
00000360: 1a83 94bd a736 29bd d6e2 05be 2f37 35be
00000370: 4dad 353c 376a ec3c 956d bcbc 190a 52be
00000380: 1ea7 dc3d cf9e 93bc 2cdd cf3d 3dca 9dbd
00000390: dd85 f4bd 6755 6ebc 50da e23d 5400 453d
000003a0: 9d26 013e 2ea2 ddbb 4a25 49bc 5b63 f43c
000003b0: 86fe b83c 1c6d 873e 8315 82bd 5bd8 07be
000003c0: 3ca3 56be 24a7 593d 23eb 4d3e 4497 d4bd
000003d0: 04d0 103c 745d 1f3e 9cfb 9c3d 1fa3 3ebe
000003e0: aa0f 0dbd 76ac 2e3d 97aa 15bc ed0c b63d
000003f0: 8e5d d8bd 17f5 5f3d 4664 92bd 1f58 513d
0.22423309 -0.05662589 0.10849257 0.027759723 -0.092106365 -0.046038058 -0.04750061 0.12096186
0.1699441 -0.02331347 0.055589862 -0.08110083 -0.1398521 -0.035567746 0.10801999 0.052815802
0.06802611 -0.11037033 -0.04990906 -0.14248 0.05155936 -0.026190246 0.09507742 0.053659156
-0.06513568 0.2146948 -0.15091577 -0.29040113 0.077103026 0.14808728 0.08861916 -0.15709904
0.031673614 -0.038120486 -0.089685336 -0.01294853 0.019958582 0.0661065 0.009240705 -0.16268481
-0.04097367 0.03517922 -0.07015354 0.08184967 -0.047453605 -0.023886975 0.0025405805 -0.07654362
-0.12243847 0.019139608 -0.10249774 0.013725085 0.051570784 0.07690471 -0.041294396 0.09273693
0.0026396203 -0.10183753 -0.079259306 -0.1494013 -0.12452513 -0.035019554 -0.095812045 -0.049785558
-0.025199765 0.018011654 0.11257582 0.08220638 0.1370498 0.011762546 -0.11397642 -0.015586672
-0.04020173 -0.16510688 -0.06737751 0.06935087 -0.19168584 0.09055892 0.14573632 0.026257299
-0.11002034 0.09087797 -0.045317568 0.037821054 -0.006174036 -0.05250489 0.07776503 -0.04960595
0.09546682 0.10117588 0.03897151 0.054657236 0.07075728 -0.098903015 -0.002189801 -0.1134443
0.03292654 0.16473804 -0.07193481 -0.008596671 0.025496911 0.08698445 -0.051030833 -0.0774025
0.005386921 -0.07646672 0.0499269 0.0368357 -0.03851227 -0.09190816 -0.16565421 0.063917145
0.03137412 -0.018164191 -0.010048802 0.028591007 0.024112035 0.017516902 -0.04035679 -0.09501934
0.022861075 0.09581707 0.11148975 0.097886205 0.0524419 -0.081488185 -0.002690033 -0.11437856
0.0035331615 -0.10027645 0.07232485 -0.11296768 0.048573215 -0.13954093 0.0023804803 0.055396877
0.011537641 0.07102317 0.008067413 -0.0876061 -0.037482295 0.06252552 -0.01762926 0.010791776
-0.086271435 0.16344881 -0.0062839305 0.043384302 0.046860106 -0.14900619 -0.16637357 0.1279021
-0.026434163 -0.012653062 -0.032858036 -0.029917846 0.059986513 0.038913652 -0.028575046 -0.08564854
0.09056001 0.07510252 0.026287183 0.117221914 0.04163135 0.028373074 -0.03390756 -0.059994068
0.019834973 -0.037408534 0.19783176 -0.113436334 0.018061377 0.028863614 0.1018554 0.007026608
-0.01120613 -0.09858717 -0.023964478 0.015067379 -0.044446733 0.0030259998 -0.05759521 -0.074268356
-0.08133915 -0.00041682099 -0.05861076 -0.006355429 0.028863935 0.10055574 0.029732939 -0.1570272
-0.019740932 -0.037968986 0.11733842 -0.06675825 0.026249185 0.0074380054 -0.015203813 -0.037760817
-0.057411134 -0.12675421 0.13737078 0.029987406 0.0038354697 -0.009496304 0.028660135 -0.11721138
-0.007655261 -0.11326513 -0.006524347 0.096355274 0.12384291 0.077455364 -0.122050375 0.083977215
-0.07251568 -0.041311886 -0.13074812 -0.17696832 0.011088681 0.028859241 -0.023001472 -0.20511664
0.107740626 -0.018020062 0.10149607 -0.077045895 -0.11939595 -0.014546729 0.11076796 0.048096016
0.12612386 -0.006763718 -0.012276957 0.029832533 0.022582304 0.2645043 -0.06351759 -0.13266127
-0.20960706 0.053137913 0.20109229 -0.10380414 0.008838657 0.15562993 0.07665178 -0.18616913
-0.034438767 0.04264494 -0.00913491 0.08889184 -0.10564719 0.054677095 -0.07148032 0.05110943

tower.1.conv2.bias f4 [32]
00000000: 03d4 e33b dae2 aeb9 42c0 ee3b d3af 51bb
00000010: 6269 12ba 8646 94bb 0392 53bb 7494 c5bb
00000020: 63f4 95b9 5145 9bba bea2 d7ba feae 8abb
00000030: 58dc a5bb 941d 05b9 9101 03bb 2ec9 aaba
00000040: 0f7a 63ba 614c c8ba 8e41 f0bb e8f6 3bbb
00000050: 07d0 7139 120e 13bc fed3 d53a 1492 5b3b
00000060: fb97 cb38 63fd 683b 8b11 e3bb 8f65 393a
00000070: c3cc 51b9 dc3d 84bb f346 dbba b247 89bb
0.006952764 -0.00033356884 0.0072861025 -0.0031995669 -0.0005585161 -0.0045250086 -0.0032283075 -0.00602966
-0.00028601577 -0.001184622 -0.0016451699 -0.0042322865 -0.0050616674 -0.00012694887 -0.0019989947 -0.0013029927
-0.0008677551 -0.0015281552 -0.0073320335 -0.0028681103 0.00023061047 -0.008975523 0.0016313789 0.0033503817
9.708103e-05 0.003555142 -0.0069295815 0.00070723234 -0.00020008073 -0.0040356945 -0.0016729519 -0.004189455

policy_conv.weight f4 [16, 32, 1, 1]
00000000: 1475 4dbd 3cf0 0f3e 2d1d cbbe 3870 2c3e
00000010: 5590 ae3e a3ca 473d c864 783e 4362 5f3e
00000020: 41e2 4dbe 94c0 87be 8fc8 563e c044 923e
00000030: 9c40 b6bd a3e7 643e 2199 33bf fa0a e13d
00000040: 3484 0dbe 1ac9 4cbe ce61 9cbd c665 58be
00000050: cd07 ef3e e6f7 6d3e bf38 02bf 3212 583e
00000060: 90dd 3b3e f916 883e 7d77 f13d 8b84 1cbe
00000070: 78d2 26bd cae5 913e d28d 1dbf 17b5 fd3d
00000080: d8b6 663e 293a 093f 7843 d9bd a739 0dbf
00000090: 6abd 9d3e 6f70 53be abc0 ccbe 3c51 c53c
000000a0: 1dfc 64be 7b90 2f3e e10e 183e 269f f53b
000000b0: 3e3a 00bd 66ef a9be 53b4 06be ea60 da3e
000000c0: 0afa 183e ac38 3d3d 4522 a4be 7361 d2be
000000d0: d9a5 43bd 78eb b7be eb21 a43e 0aef 143e
000000e0: 5356 a4bd 336e 03bd 2677 3a3e cab1 5ebe
000000f0: 15c5 95bb 4eb8 493d 3769 df3d fbae f23c
00000100: f0d3 42be 123b 2abe d2fd 05be eb51 f0be
00000110: 65ba a63e f0be d5bb f42a 713e f9f8 fcbc
00000120: 94ba 1b3e 96b1 ae3d 6949 28be 37e5 c5be
00000130: 19f8 a33e 8bf4 69be e0fc 33bd c8d4 b4be
00000140: c94b 70bc fff2 45bd 0e45 40bd 99ba 44bd
00000150: c394 4bbc ea3c 9b3e c74e b63d c5d0 9dbe
00000160: b31e b93e eaf8 8f3d b214 ebbc f85d 0cbf
00000170: ac63 2dbc 6a12 d73c 4146 253c e13d 0ebf
00000180: 32a7 6cbe 0f89 a63e 1de8 df3e a829 b43c
00000190: fedd 9d3d 0ef6 83be eace 633e 0390 023d
000001a0: d6ee 933e 20aa 9e3e d77c 05be 6888 69be
000001b0: 0fae e63e 864b 4cbe ddc4 eabd 239c 293f
000001c0: 0982 663c 1fac b2be 60b8 88be fda6 a9bb
000001d0: 72f8 55be d808 463e 448a 58be 9cd6 bcbe
000001e0: 6a84 afbe 4a04 b43e 13f0 e33c 0ae8 293e
000001f0: 0c9f da3e c9fb 313f 8e6b 72be a4a9 983e
00000200: 7519 aaba cc3f f9be daf1 cd3e 6910 bf3d
00000210: 5b7f 4b3e f3a1 253f 071b 003e f54c d5bc
00000220: 60fc c0bd 8579 9d3b 447a 88be ffe4 4dbd
00000230: 439e 16be 3bb5 c03b 5185 6f3e c4bf cfbe
00000240: 68f1 813e 6773 fcbd 6fd6 ec3e 4ee8 833d
00000250: 5817 e83d 267a 43be b5d2 433e 0cf8 a4be
00000260: 4a1a 5a3e c4c6 2dbc 49ec ddbe de42 49be
00000270: 79f9 febc 1e8c 3dbc 5a85 96be 4500 d83e
00000280: 5e05 12bd 360f 0b3e 0fae 3dbe 5d7e d2bd
00000290: 02b6 413e 6ed3 9c3e cbcd 1d3f 013c 533d
000002a0: 4e8a 27be c2f5 3b3e cc2b d8bd 6079 ffbd
000002b0: 4935 cd3e 0b06 4f3d e02e 62bd 27f2 24be
000002c0: 25ba 21bd d0da 84be fd1b d2be 566b ac3d
000002d0: ce03 fb3d f9be ab3e 0e52 0dbd 7cd4 81be
000002e0: 6b42 7dbe 69ea ed3d c703 a73e d587 843e
000002f0: a67d 61be 55bb 3ebe 2af2 b8bc 069a b13e
00000300: 6dfb b33e 554a 06bd dfde 03bd dc28 b2be
00000310: 6ec0 483c 94b5 49be 2d42 45be 48d1 833e
00000320: 5a59 863e fb15 e0be 02f6 a3bc 040a 163e
00000330: 3c19 a5be 8bea 42be 433c aa3d e919 f7bd
00000340: a8cb 7b3e e22c 8fbe d52f 50bd aa5b c93d
00000350: 8a0b a8bd 7546 85be 1a5b 063e 2694 82be
00000360: 06d2 193e fa96 2abe 3fb1 5d3d 3156 f03d
00000370: b8fc 0cbe ad47 aebe 232c 4f3d 83f7 96be
00000380: 02da b2be 1a22 263e a4bd 5abe 6b15 54be
00000390: 0a47 7d3d 8674 55bd 4b5d cebe 219a ec3d
000003a0: b432 89be d097 c1bd 5199 d8bd 744e 423e
000003b0: 59ce 353d 3c3e a7be b202 90be 199e 24be
000003c0: bb8f 2e3f eb97 8cbb fd43 dfbd 2bd8 8c3e
000003d0: 1767 63be 6fd9 3fbe 73c6 313e 2600 86be
000003e0: 6dd6 df3e bc7b 27be 50cf b3bd 1e12 353e
000003f0: dfdc 2ebd e1c3 5a3e 2ce7 573e 4cbc 6a3d
-0.050160483 0.14056486 -0.39670697 0.16839683 0.34094492 0.048777234 0.24257195 0.21814828
-0.2010584 -0.26514113 0.20974945 0.28568077 -0.08899042 0.22353987 -0.7015553 0.10988422
-0.13819963 -0.19998589 -0.07635842 -0.21132573 0.4668564 0.23239097 -0.5086784 0.21100691
0.18346238 0.26580027 0.11790369 -0.15284936 -0.040728062 0.28495628 -0.61544526 0.12388056
0.22530687 0.5360437 -0.10608572 -0.55166095 0.30808574 -0.20648359 -0.39990744 0.024086587
-0.22361799 0.17144959 0.14849426 0.0074957786 -0.031305544 -0.3319046 -0.13154726 0.42652065
0.14939132 0.046196625 -0.32057396 -0.41089973 -0.047765587 -0.35921836 0.32057127 0.14544311
-0.080242775 -0.032087516 0.18209514 -0.21747509 -0.004570613 0.049248032 0.1090874 0.029624453
-0.1902616 -0.16624096 -0.13085106 -0.46937498 0.32564083 -0.0065230057 0.23551542 -0.030880438
0.15207893 0.085299656 -0.16434254 -0.3865144 0.3202522 -0.22847192 -0.043942332 -0.3531859
-0.014666506 -0.048327442 -0.046940856 -0.048029516 -0.012425604 0.3031991 0.08901744 -0.3082334
0.36156234 0.070298985 -0.028696392 -0.54830885 -0.010582846 0.026253898 0.010087551 -0.5556317
-0.23110655 0.32526442 0.43731776 0.02199252 0.07708357 -0.25773662 0.222469 0.03187562
0.28893155 0.3098917 -0.13035904 -0.22805941 0.4505467 -0.19950685 -0.1146333 0.6625387
0.014069089 -0.34896943 -0.26703167 -0.0051773773 -0.20895556 0.19339311 -0.21146494 -0.36882484
-0.3428071 0.35159522 0.027824437 0.16592422 0.42699468 0.6952482 -0.23673841 0.29816926
-0.0012977557 -0.48681486 0.4022358 0.09329302 0.19872801 0.6470024 0.1251031 -0.026037673
-0.09423137 0.004805746 -0.2665578 -0.050267216 -0.1470881 0.0058809794 0.233907 -0.40575993
0.2537949 -0.12326699 0.4625735 0.06440793 0.113325775 -0.19089565 0.19123347 -0.32220495
0.21299091 -0.010606471 -0.43344334 -0.19654414 -0.031124817 -0.011569051 -0.29398614 0.42187706
-0.03564965 0.13580021 -0.1852343 -0.10278008 0.18917087 0.30630058 0.6164214 0.051570896
-0.16361353 0.18355468 -0.105552286 -0.12474322 0.40079716 0.050542872 -0.055220485 -0.16107999
-0.039484162 -0.2594819 -0.41036978 0.0841891 0.12256585 0.33544138 -0.03450208 -0.25357425
-0.24732368 0.11616976 0.3262007 0.25884882 -0.22020587 -0.18626149 -0.02257641 0.34687823
0.3515276 -0.032785732 -0.03219497 -0.34796798 0.01225291 -0.19698173 -0.19263525 0.25745606
0.26240045 -0.4376677 -0.020014767 0.14652258 -0.32245815 -0.19034784 0.08312275 -0.12065489
0.24589407 -0.2796393 -0.050826866 0.09831937 -0.08205326 -0.26030317 0.1312069 -0.25503653
0.15021524 -0.16659155 0.054124113 0.1173519 -0.1376828 -0.3403906 0.0505792 -0.2948571
-0.34931952 0.16223946 -0.21361405 -0.20711295 0.061835326 -0.05211308 -0.40305552 0.11552835
-0.26796496 -0.09452784 -0.10576118 0.1897524 0.04438624 -0.3266467 -0.28127056 -0.16075934
0.68188065 -0.004290571 -0.109016396 0.27508673 -0.22207294 -0.18735288 0.17360859 -0.26171988
0.4371828 -0.16355795 -0.08779776 0.17682692 -0.042691108 0.21363784 0.21084279 0.05730848

policy_conv.bias f4 [16]
00000000: ab00 23bc 66c1 433a 557b 0fbc e0ef c33a
00000010: 9b6d 28bb 4c26 17bc df17 f2bb cb22 483b
00000020: 75df ed3b db18 b63b 5a0e b5bb 5c7c b5ba
00000030: 3500 0b3b c0b0 233c 29fc cebb 285e 0abc
-0.00994889 0.0007467478 -0.008757432 0.0014948808 -0.0025700096 -0.009225439 -0.0073880996 0.0030538316
0.007259304 0.005557162 -0.0055253925 -0.0013846266 0.002120984 0.009990871 -0.006316681 -0.0084453

policy_fc.weight f4 [9, 144]
00000000: c4e1 97bc 4064 1dbe ee65 6ebe ce63 0bbd
00000010: 807b 02bd 8c97 edbd e01e 82be 771d 67bd
00000020: c622 333e 2b3b 57be 0de4 9d3c 457d 5c3d
00000030: 8b71 09be c2fa f7bc 140c ba3d 902a c3bd
00000040: ebdd 713c 9aab c1ba d6d9 31be 6fc4 303c
00000050: 6268 93bd 1fa6 46bd d9e5 c7bd 2bee e5bd
00000060: 93e5 013d da29 0dbe 300c 4abd 8f48 bcbd
00000070: d4fb 4d3d c10d 8a3d 0685 013e 06ba 6d3e
00000080: 179f 973c 9a9f c23d 29e9 49bd 907f 143e
00000090: 96ef 173e d3d1 40be 65e7 afbc ec68 273d
000000a0: eb6a f43d 5d2d 0c3d af94 5abe 23db edbc
000000b0: 7955 9dbe 35a6 5ebe 255b 1abe 7f08 3bbe
000000c0: 2e79 3fbe 53a7 2c3e 1421 273c 3abc 9f3d
000000d0: a531 41bd 7191 b1bd db42 09be 912f 3b3d
000000e0: ca5b 813d 897a 03be 76b5 8fbd 7a88 c1bb
000000f0: ea9f de3d 39bb 00be 2d83 40be c2b2 6f3e
00000100: 2456 543c d0c1 39be 2b92 063e 2522 843d
00000110: f586 9a3e c54d 7c3e 9df0 f2bd 56e7 92bc
00000120: 2f9d a83c 334a aebd efc1 303e c0fc 263d
00000130: b605 28bc 3ebb 093e dd50 5b3c b272 b13d
00000140: 9900 a2bd 0e93 84bc e8bc 1dbc 76c1 15bd
00000150: a309 243e 655b 1c3d 1a68 ef3d ad04 ffbc
00000160: b4fb c43d 370c 543d 942c bf3d 8b67 8bbe
00000170: 3465 5fba ce02 b83c dae4 b33d 3c52 91bd
00000180: ab27 c23d 7620 033b eedc 44bd 8819 e03d
00000190: 35be a1bd fbca aabc ca45 8abd d21f 13be
000001a0: c415 8ebb 0faa d33d d4a8 0e3d 6ff8 b83d
000001b0: 2646 493e 83dd 71be 8996 f03c c251 a43d
000001c0: e9a7 313d 5f29 f03d 9680 963c e9c5 90bd
000001d0: 2077 29be 0cf0 7dbe 5f59 da3d 1247 493c
000001e0: e463 abbd b50d 02bd c234 59bc e01e 03be
000001f0: 60ff 3bbe 9600 8bbe b5f1 4b3d cdbd fdbd
00000200: a0e6 19bb df62 0dbe f072 a3bc 7c29 1bbe
00000210: e09a b23d eed7 6dbe 81fd f3bb b7ef 0f3d
00000220: 605a a8bd 2032 8abe f483 75bd 105f 9cbd
00000230: 100a 16bc bd3d dfbd e867 0ebe 4a9f b03e
00000240: 3a62 e23c 4efa 323e 820e 04bd 985c 6fbd
00000250: 3d12 c13d ba18 a8bd 1b7f 46bd 1107 01be
00000260: 22a9 323e 5a5b 38be b6c9 9abe b93f 14bc
00000270: 01db 073e 8c1c a6ba 27e1 3c3c 0fb8 ba3d
00000280: ff37 163e 9a55 97ba ad04 05be 36d3 c63d
00000290: a7b4 37be a66c fd3c cb72 3abe abbf 483d
000002a0: d32a e7bd e713 3a3e fa33 2fbd 5c14 7a3d
000002b0: f07e 553d 1a00 0cbe 6845 193e f702 05be
000002c0: 5e77 35be cccf f83d d4b5 03bd b142 42bd
000002d0: ca79 eb3d 646f b63d 2879 c0bc 087a 20bd
000002e0: c2f9 f83d fa6b 543d d796 f0bc fac9 943d
000002f0: dd28 16bd caae f3bd d068 71be 7d53 cc3c
00000300: 29e0 f03d ed89 8bbe 216f 47bc a406 0e3e
00000310: 8c12 30be 2cc1 adbd a687 9a3c 93e9 41be
00000320: e114 0fbe a978 d1bd 6ced 293e 37ea 603d
00000330: 5ea2 0ebe 8ea9 0ebe ef30 81be 828f b13d
00000340: eb8b 4a3d f9af b43d 956e a23e 61ee 553b
00000350: b799 26be 2f26 c4bd f7da d7bd 3e9e acbd
00000360: 46f5 6b3e 15fa 913d ce63 a23d 71a8 80bc
00000370: 80cc 6bbe 3646 9bbc 7107 13bd 4fbb 6f3d
00000380: fbdf 67bd 6a1a debc 54fa f03d 7e22 babd
00000390: ddee 373c 2873 42be c133 933d b6dd 97be
000003a0: f9ea 77bb bee7 ac3d caee 9e3d 6029 89bd
000003b0: a3b8 0c3e 2f2a 77bc 076c 0cbe ac5b 133e
000003c0: f232 6f3c af22 28be 51a6 a13d 4b4e 43be
000003d0: de7b 043e 411f 71be 41c1 c0bd a4e6 7bbc
000003e0: 9bba f6bd 3d8e 0a3b 69d5 273d 51e1 d83d
000003f0: 279a 9c3c edc1 473d 3a8c 0ebc 90a9 383e
-0.01854027 -0.15370274 -0.2328107 -0.034030728 -0.03185606 -0.11601171 -0.2541418 -0.056424584
0.17493734 -0.21018665 0.019273782 0.053830404 -0.1342222 -0.030270938 0.09084335 -0.095296025
0.014762382 -0.0014775873 -0.17368254 0.010789021 -0.07197644 -0.04849827 -0.09760637 -0.112270676
0.03171308 -0.13785496 -0.04932803 -0.09193527 0.05028899 0.067409046 0.126484 0.23215494
0.018508477 0.09503098 -0.049294624 0.14501786 0.14837489 -0.18830042 -0.021472642 0.040871546
0.119344555 0.03422295 -0.21345781 -0.029035157 -0.30729273 -0.2174309 -0.15073831 -0.1826496
-0.1869857 0.16860704 0.0102007575 0.07799573 -0.047166485 -0.08670319 -0.1340441 0.04569966
0.063163355 -0.12839712 -0.07017033 -0.005906162 0.10870345 -0.1257142 -0.1880004 0.23408034
0.012959991 -0.1814034 0.13141696 0.06451825 0.3018109 0.24639042 -0.118622996 -0.017932575
0.020582763 -0.08510246 0.1726148 0.040768385 -0.010255268 0.13450333 0.0133859785 0.086644545
-0.0791027 -0.016183402 -0.009627558 -0.03656145 0.16019301 0.038173098 0.11689778 -0.03113016
0.09618321 0.05176946 0.093346745 -0.27227435 -0.00085218553 0.022462275 0.08783884 -0.07095763
0.09480222 0.0020008362 -0.048062257 0.1094237 -0.07897607 -0.020848742 -0.067515925 -0.14367607
-0.0043360908 0.103351705 0.034828976 0.0903176 0.19655666 -0.23619656 0.029368656 0.080234066
0.043373022 0.11726641 0.018371861 -0.07068998 -0.16549349 -0.24798602 0.106615774 0.012285011
-0.08368662 -0.031751353 -0.013257207 -0.12804747 -0.18359137 -0.27148885 0.049791057 -0.12389717
-0.002348341 -0.13807248 -0.019952267 -0.15152544 0.08720946 -0.23226902 -0.0074459915 0.03514072
-0.08220363 -0.26991367 -0.059940293 -0.07635319 -0.0091576725 -0.109004475 -0.13906825 0.34496528
0.027634729 0.17478296 -0.0322404 -0.058437914 0.09427307 -0.08207841 -0.04846106 -0.12600352
0.17447332 -0.18003598 -0.30232018 -0.009048396 0.13267137 -0.0012673303 0.01152829 0.09117138
0.14669798 -0.0011545897 -0.12990065 0.09708254 -0.17940007 0.030935597 -0.18207853 0.049010914
-0.11287465 0.18171655 -0.042774178 0.061054572 0.05212301 -0.13671914 0.14967883 -0.12989412
-0.17721316 0.12149009 -0.032155827 -0.047426883 0.11497839 0.08907965 -0.023495272 -0.039178878
0.121570125 0.051860787 -0.029368801 0.072650865 -0.036660064 -0.11898573 -0.23575139 0.024942154
0.11761505 -0.27253667 -0.012172491 0.1386972 -0.17194575 -0.0848411 0.01886351 -0.18936758
-0.13972808 -0.10228092 0.16594476 0.054910865 -0.13929126 -0.13931867 -0.25232646 0.0866995
0.049449842 0.088226266 0.31724992 0.0032643306 -0.16269575 -0.095775954 -0.10539811 -0.0842862
0.23042783 0.071277775 0.079291925 -0.01570532 -0.2302723 -0.018954378 -0.03589577 0.05852824
-0.05661009 -0.027112205 0.11766496 -0.0908861 0.011226383 -0.18989241 0.07187606 -0.2966134
-0.0037829264 0.08442639 0.07760389 -0.06697345 0.13742308 -0.015085741 -0.13713084 0.14390439
0.014599549 -0.1641948 0.078930505 -0.19072835 0.12937877 -0.23547079 -0.0941186 -0.015374813
-0.12047311 0.002114191 0.04097501 0.10589851 0.019116474 0.048768926 -0.008700425 0.18033433

policy_fc.bias f4 [9]
00000000: e2b2 563a 5ca7 ef3b b4f1 d93b a0f3 c9bb
00000010: 4741 303b 2ad8 ce3b 7d50 bd39 0ff2 bebb
00000020: f5c3 ab3b
0.0008190108 0.007313652 0.0066511277 -0.0061630756 0.0026894377 0.00631239 0.00036108858 -0.0058271955
0.0052418658
